{"modelTopology":{"node":[{"input":[],"attr":{"dtype":{"type":1},"shape":{"shape":{"dim":[{"size":"-1"},{"size":"224"},{"size":"224"},{"size":"3"}]}}},"name":"Placeholder","op":"Placeholder"},{"input":[],"attr":{"value":{"tensor":{"floatVal":[2],"doubleVal":[],"intVal":[],"stringVal":[],"scomplexVal":[],"int64Val":[],"boolVal":[],"uint32Val":[],"uint64Val":[],"dtype":1,"tensorShape":{"dim":[]}}},"dtype":{"type":1}},"name":"module_apply_default/hub_input/Mul/y","op":"Const"},{"input":[],"attr":{"value":{"tensor":{"floatVal":[1],"doubleVal":[],"intVal":[],"stringVal":[],"scomplexVal":[],"int64Val":[],"boolVal":[],"uint32Val":[],"uint64Val":[],"dtype":1,"tensorShape":{"dim":[]}}},"dtype":{"type":1}},"name":"module_apply_default/hub_input/Sub/y","op":"Const"},{"input":[],"attr":{"value":{"tensor":{"floatVal":[],"doubleVal":[],"intVal":[],"stringVal":[],"scomplexVal":[],"int64Val":[],"boolVal":[],"uint32Val":[],"uint64Val":[],"dtype":1,"tensorShape":{"dim":[{"size":"3"},{"size":"3"},{"size":"3"},{"size":"16"}]}}},"dtype":{"type":1}},"name":"module/MobilenetV1/Conv2d_0/weights","op":"Const"},{"input":[],"attr":{"value":{"tensor":{"floatVal":[],"doubleVal":[],"intVal":[],"stringVal":[],"scomplexVal":[],"int64Val":[],"boolVal":[],"uint32Val":[],"uint64Val":[],"dtype":1,"tensorShape":{"dim":[{"size":"16"}]}}},"dtype":{"type":1}},"name":"module/MobilenetV1/Conv2d_0/BatchNorm/gamma","op":"Const"},{"input":[],"attr":{"value":{"tensor":{"floatVal":[],"doubleVal":[],"intVal":[],"stringVal":[],"scomplexVal":[],"int64Val":[],"boolVal":[],"uint32Val":[],"uint64Val":[],"dtype":1,"tensorShape":{"dim":[{"size":"16"}]}}},"dtype":{"type":1}},"name":"module/MobilenetV1/Conv2d_0/BatchNorm/beta","op":"Const"},{"input":[],"attr":{"value":{"tensor":{"floatVal":[],"doubleVal":[],"intVal":[],"stringVal":[],"scomplexVal":[],"int64Val":[],"boolVal":[],"uint32Val":[],"uint64Val":[],"dtype":1,"tensorShape":{"dim":[{"size":"16"}]}}},"dtype":{"type":1}},"name":"module/MobilenetV1/Conv2d_0/BatchNorm/moving_mean","op":"Const"},{"input":[],"attr":{"value":{"tensor":{"floatVal":[],"doubleVal":[],"intVal":[],"stringVal":[],"scomplexVal":[],"int64Val":[],"boolVal":[],"uint32Val":[],"uint64Val":[],"dtype":1,"tensorShape":{"dim":[{"size":"16"}]}}},"dtype":{"type":1}},"name":"module/MobilenetV1/Conv2d_0/BatchNorm/moving_variance","op":"Const"},{"input":[],"attr":{"value":{"tensor":{"floatVal":[],"doubleVal":[],"intVal":[],"stringVal":[],"scomplexVal":[],"int64Val":[],"boolVal":[],"uint32Val":[],"uint64Val":[],"dtype":1,"tensorShape":{"dim":[{"size":"3"},{"size":"3"},{"size":"16"},{"size":"1"}]}}},"dtype":{"type":1}},"name":"module/MobilenetV1/Conv2d_1_depthwise/depthwise_weights","op":"Const"},{"input":[],"attr":{"value":{"tensor":{"floatVal":[],"doubleVal":[],"intVal":[],"stringVal":[],"scomplexVal":[],"int64Val":[],"boolVal":[],"uint32Val":[],"uint64Val":[],"dtype":1,"tensorShape":{"dim":[{"size":"16"}]}}},"dtype":{"type":1}},"name":"module/MobilenetV1/Conv2d_1_depthwise/BatchNorm/gamma","op":"Const"},{"input":[],"attr":{"value":{"tensor":{"floatVal":[],"doubleVal":[],"intVal":[],"stringVal":[],"scomplexVal":[],"int64Val":[],"boolVal":[],"uint32Val":[],"uint64Val":[],"dtype":1,"tensorShape":{"dim":[{"size":"16"}]}}},"dtype":{"type":1}},"name":"module/MobilenetV1/Conv2d_1_depthwise/BatchNorm/beta","op":"Const"},{"input":[],"attr":{"value":{"tensor":{"floatVal":[],"doubleVal":[],"intVal":[],"stringVal":[],"scomplexVal":[],"int64Val":[],"boolVal":[],"uint32Val":[],"uint64Val":[],"dtype":1,"tensorShape":{"dim":[{"size":"16"}]}}},"dtype":{"type":1}},"name":"module/MobilenetV1/Conv2d_1_depthwise/BatchNorm/moving_mean","op":"Const"},{"input":[],"attr":{"dtype":{"type":1},"value":{"tensor":{"floatVal":[],"doubleVal":[],"intVal":[],"stringVal":[],"scomplexVal":[],"int64Val":[],"boolVal":[],"uint32Val":[],"uint64Val":[],"dtype":1,"tensorShape":{"dim":[{"size":"16"}]}}}},"name":"module/MobilenetV1/Conv2d_1_depthwise/BatchNorm/moving_variance","op":"Const"},{"input":[],"attr":{"value":{"tensor":{"floatVal":[],"doubleVal":[],"intVal":[],"stringVal":[],"scomplexVal":[],"int64Val":[],"boolVal":[],"uint32Val":[],"uint64Val":[],"dtype":1,"tensorShape":{"dim":[{"size":"1"},{"size":"1"},{"size":"16"},{"size":"32"}]}}},"dtype":{"type":1}},"name":"module/MobilenetV1/Conv2d_1_pointwise/weights","op":"Const"},{"input":[],"attr":{"value":{"tensor":{"floatVal":[],"doubleVal":[],"intVal":[],"stringVal":[],"scomplexVal":[],"int64Val":[],"boolVal":[],"uint32Val":[],"uint64Val":[],"dtype":1,"tensorShape":{"dim":[{"size":"32"}]}}},"dtype":{"type":1}},"name":"module/MobilenetV1/Conv2d_1_pointwise/BatchNorm/gamma","op":"Const"},{"input":[],"attr":{"value":{"tensor":{"floatVal":[],"doubleVal":[],"intVal":[],"stringVal":[],"scomplexVal":[],"int64Val":[],"boolVal":[],"uint32Val":[],"uint64Val":[],"dtype":1,"tensorShape":{"dim":[{"size":"32"}]}}},"dtype":{"type":1}},"name":"module/MobilenetV1/Conv2d_1_pointwise/BatchNorm/beta","op":"Const"},{"input":[],"attr":{"dtype":{"type":1},"value":{"tensor":{"floatVal":[],"doubleVal":[],"intVal":[],"stringVal":[],"scomplexVal":[],"int64Val":[],"boolVal":[],"uint32Val":[],"uint64Val":[],"dtype":1,"tensorShape":{"dim":[{"size":"32"}]}}}},"name":"module/MobilenetV1/Conv2d_1_pointwise/BatchNorm/moving_mean","op":"Const"},{"input":[],"attr":{"value":{"tensor":{"floatVal":[],"doubleVal":[],"intVal":[],"stringVal":[],"scomplexVal":[],"int64Val":[],"boolVal":[],"uint32Val":[],"uint64Val":[],"dtype":1,"tensorShape":{"dim":[{"size":"32"}]}}},"dtype":{"type":1}},"name":"module/MobilenetV1/Conv2d_1_pointwise/BatchNorm/moving_variance","op":"Const"},{"input":[],"attr":{"value":{"tensor":{"floatVal":[],"doubleVal":[],"intVal":[],"stringVal":[],"scomplexVal":[],"int64Val":[],"boolVal":[],"uint32Val":[],"uint64Val":[],"dtype":1,"tensorShape":{"dim":[{"size":"3"},{"size":"3"},{"size":"32"},{"size":"1"}]}}},"dtype":{"type":1}},"name":"module/MobilenetV1/Conv2d_2_depthwise/depthwise_weights","op":"Const"},{"input":[],"attr":{"dtype":{"type":1},"value":{"tensor":{"floatVal":[],"doubleVal":[],"intVal":[],"stringVal":[],"scomplexVal":[],"int64Val":[],"boolVal":[],"uint32Val":[],"uint64Val":[],"dtype":1,"tensorShape":{"dim":[{"size":"32"}]}}}},"name":"module/MobilenetV1/Conv2d_2_depthwise/BatchNorm/gamma","op":"Const"},{"input":[],"attr":{"value":{"tensor":{"floatVal":[],"doubleVal":[],"intVal":[],"stringVal":[],"scomplexVal":[],"int64Val":[],"boolVal":[],"uint32Val":[],"uint64Val":[],"dtype":1,"tensorShape":{"dim":[{"size":"32"}]}}},"dtype":{"type":1}},"name":"module/MobilenetV1/Conv2d_2_depthwise/BatchNorm/beta","op":"Const"},{"input":[],"attr":{"value":{"tensor":{"floatVal":[],"doubleVal":[],"intVal":[],"stringVal":[],"scomplexVal":[],"int64Val":[],"boolVal":[],"uint32Val":[],"uint64Val":[],"dtype":1,"tensorShape":{"dim":[{"size":"32"}]}}},"dtype":{"type":1}},"name":"module/MobilenetV1/Conv2d_2_depthwise/BatchNorm/moving_mean","op":"Const"},{"input":[],"attr":{"value":{"tensor":{"floatVal":[],"doubleVal":[],"intVal":[],"stringVal":[],"scomplexVal":[],"int64Val":[],"boolVal":[],"uint32Val":[],"uint64Val":[],"dtype":1,"tensorShape":{"dim":[{"size":"32"}]}}},"dtype":{"type":1}},"name":"module/MobilenetV1/Conv2d_2_depthwise/BatchNorm/moving_variance","op":"Const"},{"input":[],"attr":{"value":{"tensor":{"floatVal":[],"doubleVal":[],"intVal":[],"stringVal":[],"scomplexVal":[],"int64Val":[],"boolVal":[],"uint32Val":[],"uint64Val":[],"dtype":1,"tensorShape":{"dim":[{"size":"1"},{"size":"1"},{"size":"32"},{"size":"64"}]}}},"dtype":{"type":1}},"name":"module/MobilenetV1/Conv2d_2_pointwise/weights","op":"Const"},{"input":[],"attr":{"value":{"tensor":{"floatVal":[],"doubleVal":[],"intVal":[],"stringVal":[],"scomplexVal":[],"int64Val":[],"boolVal":[],"uint32Val":[],"uint64Val":[],"dtype":1,"tensorShape":{"dim":[{"size":"64"}]}}},"dtype":{"type":1}},"name":"module/MobilenetV1/Conv2d_2_pointwise/BatchNorm/gamma","op":"Const"},{"input":[],"attr":{"dtype":{"type":1},"value":{"tensor":{"floatVal":[],"doubleVal":[],"intVal":[],"stringVal":[],"scomplexVal":[],"int64Val":[],"boolVal":[],"uint32Val":[],"uint64Val":[],"dtype":1,"tensorShape":{"dim":[{"size":"64"}]}}}},"name":"module/MobilenetV1/Conv2d_2_pointwise/BatchNorm/beta","op":"Const"},{"input":[],"attr":{"value":{"tensor":{"floatVal":[],"doubleVal":[],"intVal":[],"stringVal":[],"scomplexVal":[],"int64Val":[],"boolVal":[],"uint32Val":[],"uint64Val":[],"dtype":1,"tensorShape":{"dim":[{"size":"64"}]}}},"dtype":{"type":1}},"name":"module/MobilenetV1/Conv2d_2_pointwise/BatchNorm/moving_mean","op":"Const"},{"input":[],"attr":{"value":{"tensor":{"floatVal":[],"doubleVal":[],"intVal":[],"stringVal":[],"scomplexVal":[],"int64Val":[],"boolVal":[],"uint32Val":[],"uint64Val":[],"dtype":1,"tensorShape":{"dim":[{"size":"64"}]}}},"dtype":{"type":1}},"name":"module/MobilenetV1/Conv2d_2_pointwise/BatchNorm/moving_variance","op":"Const"},{"input":[],"attr":{"value":{"tensor":{"floatVal":[],"doubleVal":[],"intVal":[],"stringVal":[],"scomplexVal":[],"int64Val":[],"boolVal":[],"uint32Val":[],"uint64Val":[],"dtype":1,"tensorShape":{"dim":[{"size":"3"},{"size":"3"},{"size":"64"},{"size":"1"}]}}},"dtype":{"type":1}},"name":"module/MobilenetV1/Conv2d_3_depthwise/depthwise_weights","op":"Const"},{"input":[],"attr":{"value":{"tensor":{"floatVal":[],"doubleVal":[],"intVal":[],"stringVal":[],"scomplexVal":[],"int64Val":[],"boolVal":[],"uint32Val":[],"uint64Val":[],"dtype":1,"tensorShape":{"dim":[{"size":"64"}]}}},"dtype":{"type":1}},"name":"module/MobilenetV1/Conv2d_3_depthwise/BatchNorm/gamma","op":"Const"},{"input":[],"attr":{"value":{"tensor":{"floatVal":[],"doubleVal":[],"intVal":[],"stringVal":[],"scomplexVal":[],"int64Val":[],"boolVal":[],"uint32Val":[],"uint64Val":[],"dtype":1,"tensorShape":{"dim":[{"size":"64"}]}}},"dtype":{"type":1}},"name":"module/MobilenetV1/Conv2d_3_depthwise/BatchNorm/beta","op":"Const"},{"input":[],"attr":{"value":{"tensor":{"floatVal":[],"doubleVal":[],"intVal":[],"stringVal":[],"scomplexVal":[],"int64Val":[],"boolVal":[],"uint32Val":[],"uint64Val":[],"dtype":1,"tensorShape":{"dim":[{"size":"64"}]}}},"dtype":{"type":1}},"name":"module/MobilenetV1/Conv2d_3_depthwise/BatchNorm/moving_mean","op":"Const"},{"input":[],"attr":{"value":{"tensor":{"floatVal":[],"doubleVal":[],"intVal":[],"stringVal":[],"scomplexVal":[],"int64Val":[],"boolVal":[],"uint32Val":[],"uint64Val":[],"dtype":1,"tensorShape":{"dim":[{"size":"64"}]}}},"dtype":{"type":1}},"name":"module/MobilenetV1/Conv2d_3_depthwise/BatchNorm/moving_variance","op":"Const"},{"input":[],"attr":{"value":{"tensor":{"floatVal":[],"doubleVal":[],"intVal":[],"stringVal":[],"scomplexVal":[],"int64Val":[],"boolVal":[],"uint32Val":[],"uint64Val":[],"dtype":1,"tensorShape":{"dim":[{"size":"1"},{"size":"1"},{"size":"64"},{"size":"64"}]}}},"dtype":{"type":1}},"name":"module/MobilenetV1/Conv2d_3_pointwise/weights","op":"Const"},{"input":[],"attr":{"value":{"tensor":{"floatVal":[],"doubleVal":[],"intVal":[],"stringVal":[],"scomplexVal":[],"int64Val":[],"boolVal":[],"uint32Val":[],"uint64Val":[],"dtype":1,"tensorShape":{"dim":[{"size":"64"}]}}},"dtype":{"type":1}},"name":"module/MobilenetV1/Conv2d_3_pointwise/BatchNorm/gamma","op":"Const"},{"input":[],"attr":{"value":{"tensor":{"floatVal":[],"doubleVal":[],"intVal":[],"stringVal":[],"scomplexVal":[],"int64Val":[],"boolVal":[],"uint32Val":[],"uint64Val":[],"dtype":1,"tensorShape":{"dim":[{"size":"64"}]}}},"dtype":{"type":1}},"name":"module/MobilenetV1/Conv2d_3_pointwise/BatchNorm/beta","op":"Const"},{"input":[],"attr":{"value":{"tensor":{"floatVal":[],"doubleVal":[],"intVal":[],"stringVal":[],"scomplexVal":[],"int64Val":[],"boolVal":[],"uint32Val":[],"uint64Val":[],"dtype":1,"tensorShape":{"dim":[{"size":"64"}]}}},"dtype":{"type":1}},"name":"module/MobilenetV1/Conv2d_3_pointwise/BatchNorm/moving_mean","op":"Const"},{"input":[],"attr":{"dtype":{"type":1},"value":{"tensor":{"floatVal":[],"doubleVal":[],"intVal":[],"stringVal":[],"scomplexVal":[],"int64Val":[],"boolVal":[],"uint32Val":[],"uint64Val":[],"dtype":1,"tensorShape":{"dim":[{"size":"64"}]}}}},"name":"module/MobilenetV1/Conv2d_3_pointwise/BatchNorm/moving_variance","op":"Const"},{"input":[],"attr":{"value":{"tensor":{"floatVal":[],"doubleVal":[],"intVal":[],"stringVal":[],"scomplexVal":[],"int64Val":[],"boolVal":[],"uint32Val":[],"uint64Val":[],"dtype":1,"tensorShape":{"dim":[{"size":"3"},{"size":"3"},{"size":"64"},{"size":"1"}]}}},"dtype":{"type":1}},"name":"module/MobilenetV1/Conv2d_4_depthwise/depthwise_weights","op":"Const"},{"input":[],"attr":{"value":{"tensor":{"floatVal":[],"doubleVal":[],"intVal":[],"stringVal":[],"scomplexVal":[],"int64Val":[],"boolVal":[],"uint32Val":[],"uint64Val":[],"dtype":1,"tensorShape":{"dim":[{"size":"64"}]}}},"dtype":{"type":1}},"name":"module/MobilenetV1/Conv2d_4_depthwise/BatchNorm/gamma","op":"Const"},{"input":[],"attr":{"value":{"tensor":{"floatVal":[],"doubleVal":[],"intVal":[],"stringVal":[],"scomplexVal":[],"int64Val":[],"boolVal":[],"uint32Val":[],"uint64Val":[],"dtype":1,"tensorShape":{"dim":[{"size":"64"}]}}},"dtype":{"type":1}},"name":"module/MobilenetV1/Conv2d_4_depthwise/BatchNorm/beta","op":"Const"},{"input":[],"attr":{"value":{"tensor":{"floatVal":[],"doubleVal":[],"intVal":[],"stringVal":[],"scomplexVal":[],"int64Val":[],"boolVal":[],"uint32Val":[],"uint64Val":[],"dtype":1,"tensorShape":{"dim":[{"size":"64"}]}}},"dtype":{"type":1}},"name":"module/MobilenetV1/Conv2d_4_depthwise/BatchNorm/moving_mean","op":"Const"},{"input":[],"attr":{"value":{"tensor":{"floatVal":[],"doubleVal":[],"intVal":[],"stringVal":[],"scomplexVal":[],"int64Val":[],"boolVal":[],"uint32Val":[],"uint64Val":[],"dtype":1,"tensorShape":{"dim":[{"size":"64"}]}}},"dtype":{"type":1}},"name":"module/MobilenetV1/Conv2d_4_depthwise/BatchNorm/moving_variance","op":"Const"},{"input":[],"attr":{"value":{"tensor":{"floatVal":[],"doubleVal":[],"intVal":[],"stringVal":[],"scomplexVal":[],"int64Val":[],"boolVal":[],"uint32Val":[],"uint64Val":[],"dtype":1,"tensorShape":{"dim":[{"size":"1"},{"size":"1"},{"size":"64"},{"size":"128"}]}}},"dtype":{"type":1}},"name":"module/MobilenetV1/Conv2d_4_pointwise/weights","op":"Const"},{"input":[],"attr":{"value":{"tensor":{"floatVal":[],"doubleVal":[],"intVal":[],"stringVal":[],"scomplexVal":[],"int64Val":[],"boolVal":[],"uint32Val":[],"uint64Val":[],"dtype":1,"tensorShape":{"dim":[{"size":"128"}]}}},"dtype":{"type":1}},"name":"module/MobilenetV1/Conv2d_4_pointwise/BatchNorm/gamma","op":"Const"},{"input":[],"attr":{"value":{"tensor":{"floatVal":[],"doubleVal":[],"intVal":[],"stringVal":[],"scomplexVal":[],"int64Val":[],"boolVal":[],"uint32Val":[],"uint64Val":[],"dtype":1,"tensorShape":{"dim":[{"size":"128"}]}}},"dtype":{"type":1}},"name":"module/MobilenetV1/Conv2d_4_pointwise/BatchNorm/beta","op":"Const"},{"input":[],"attr":{"value":{"tensor":{"floatVal":[],"doubleVal":[],"intVal":[],"stringVal":[],"scomplexVal":[],"int64Val":[],"boolVal":[],"uint32Val":[],"uint64Val":[],"dtype":1,"tensorShape":{"dim":[{"size":"128"}]}}},"dtype":{"type":1}},"name":"module/MobilenetV1/Conv2d_4_pointwise/BatchNorm/moving_mean","op":"Const"},{"input":[],"attr":{"value":{"tensor":{"floatVal":[],"doubleVal":[],"intVal":[],"stringVal":[],"scomplexVal":[],"int64Val":[],"boolVal":[],"uint32Val":[],"uint64Val":[],"dtype":1,"tensorShape":{"dim":[{"size":"128"}]}}},"dtype":{"type":1}},"name":"module/MobilenetV1/Conv2d_4_pointwise/BatchNorm/moving_variance","op":"Const"},{"input":[],"attr":{"dtype":{"type":1},"value":{"tensor":{"floatVal":[],"doubleVal":[],"intVal":[],"stringVal":[],"scomplexVal":[],"int64Val":[],"boolVal":[],"uint32Val":[],"uint64Val":[],"dtype":1,"tensorShape":{"dim":[{"size":"3"},{"size":"3"},{"size":"128"},{"size":"1"}]}}}},"name":"module/MobilenetV1/Conv2d_5_depthwise/depthwise_weights","op":"Const"},{"input":[],"attr":{"dtype":{"type":1},"value":{"tensor":{"floatVal":[],"doubleVal":[],"intVal":[],"stringVal":[],"scomplexVal":[],"int64Val":[],"boolVal":[],"uint32Val":[],"uint64Val":[],"dtype":1,"tensorShape":{"dim":[{"size":"128"}]}}}},"name":"module/MobilenetV1/Conv2d_5_depthwise/BatchNorm/gamma","op":"Const"},{"input":[],"attr":{"dtype":{"type":1},"value":{"tensor":{"floatVal":[],"doubleVal":[],"intVal":[],"stringVal":[],"scomplexVal":[],"int64Val":[],"boolVal":[],"uint32Val":[],"uint64Val":[],"dtype":1,"tensorShape":{"dim":[{"size":"128"}]}}}},"name":"module/MobilenetV1/Conv2d_5_depthwise/BatchNorm/beta","op":"Const"},{"input":[],"attr":{"value":{"tensor":{"floatVal":[],"doubleVal":[],"intVal":[],"stringVal":[],"scomplexVal":[],"int64Val":[],"boolVal":[],"uint32Val":[],"uint64Val":[],"dtype":1,"tensorShape":{"dim":[{"size":"128"}]}}},"dtype":{"type":1}},"name":"module/MobilenetV1/Conv2d_5_depthwise/BatchNorm/moving_mean","op":"Const"},{"input":[],"attr":{"value":{"tensor":{"floatVal":[],"doubleVal":[],"intVal":[],"stringVal":[],"scomplexVal":[],"int64Val":[],"boolVal":[],"uint32Val":[],"uint64Val":[],"dtype":1,"tensorShape":{"dim":[{"size":"128"}]}}},"dtype":{"type":1}},"name":"module/MobilenetV1/Conv2d_5_depthwise/BatchNorm/moving_variance","op":"Const"},{"input":[],"attr":{"value":{"tensor":{"floatVal":[],"doubleVal":[],"intVal":[],"stringVal":[],"scomplexVal":[],"int64Val":[],"boolVal":[],"uint32Val":[],"uint64Val":[],"dtype":1,"tensorShape":{"dim":[{"size":"1"},{"size":"1"},{"size":"128"},{"size":"128"}]}}},"dtype":{"type":1}},"name":"module/MobilenetV1/Conv2d_5_pointwise/weights","op":"Const"},{"input":[],"attr":{"value":{"tensor":{"floatVal":[],"doubleVal":[],"intVal":[],"stringVal":[],"scomplexVal":[],"int64Val":[],"boolVal":[],"uint32Val":[],"uint64Val":[],"dtype":1,"tensorShape":{"dim":[{"size":"128"}]}}},"dtype":{"type":1}},"name":"module/MobilenetV1/Conv2d_5_pointwise/BatchNorm/gamma","op":"Const"},{"input":[],"attr":{"value":{"tensor":{"floatVal":[],"doubleVal":[],"intVal":[],"stringVal":[],"scomplexVal":[],"int64Val":[],"boolVal":[],"uint32Val":[],"uint64Val":[],"dtype":1,"tensorShape":{"dim":[{"size":"128"}]}}},"dtype":{"type":1}},"name":"module/MobilenetV1/Conv2d_5_pointwise/BatchNorm/beta","op":"Const"},{"input":[],"attr":{"value":{"tensor":{"floatVal":[],"doubleVal":[],"intVal":[],"stringVal":[],"scomplexVal":[],"int64Val":[],"boolVal":[],"uint32Val":[],"uint64Val":[],"dtype":1,"tensorShape":{"dim":[{"size":"128"}]}}},"dtype":{"type":1}},"name":"module/MobilenetV1/Conv2d_5_pointwise/BatchNorm/moving_mean","op":"Const"},{"input":[],"attr":{"value":{"tensor":{"floatVal":[],"doubleVal":[],"intVal":[],"stringVal":[],"scomplexVal":[],"int64Val":[],"boolVal":[],"uint32Val":[],"uint64Val":[],"dtype":1,"tensorShape":{"dim":[{"size":"128"}]}}},"dtype":{"type":1}},"name":"module/MobilenetV1/Conv2d_5_pointwise/BatchNorm/moving_variance","op":"Const"},{"input":[],"attr":{"value":{"tensor":{"floatVal":[],"doubleVal":[],"intVal":[],"stringVal":[],"scomplexVal":[],"int64Val":[],"boolVal":[],"uint32Val":[],"uint64Val":[],"dtype":1,"tensorShape":{"dim":[{"size":"3"},{"size":"3"},{"size":"128"},{"size":"1"}]}}},"dtype":{"type":1}},"name":"module/MobilenetV1/Conv2d_6_depthwise/depthwise_weights","op":"Const"},{"input":[],"attr":{"value":{"tensor":{"floatVal":[],"doubleVal":[],"intVal":[],"stringVal":[],"scomplexVal":[],"int64Val":[],"boolVal":[],"uint32Val":[],"uint64Val":[],"dtype":1,"tensorShape":{"dim":[{"size":"128"}]}}},"dtype":{"type":1}},"name":"module/MobilenetV1/Conv2d_6_depthwise/BatchNorm/gamma","op":"Const"},{"input":[],"attr":{"value":{"tensor":{"floatVal":[],"doubleVal":[],"intVal":[],"stringVal":[],"scomplexVal":[],"int64Val":[],"boolVal":[],"uint32Val":[],"uint64Val":[],"dtype":1,"tensorShape":{"dim":[{"size":"128"}]}}},"dtype":{"type":1}},"name":"module/MobilenetV1/Conv2d_6_depthwise/BatchNorm/beta","op":"Const"},{"input":[],"attr":{"value":{"tensor":{"floatVal":[],"doubleVal":[],"intVal":[],"stringVal":[],"scomplexVal":[],"int64Val":[],"boolVal":[],"uint32Val":[],"uint64Val":[],"dtype":1,"tensorShape":{"dim":[{"size":"128"}]}}},"dtype":{"type":1}},"name":"module/MobilenetV1/Conv2d_6_depthwise/BatchNorm/moving_mean","op":"Const"},{"input":[],"attr":{"dtype":{"type":1},"value":{"tensor":{"floatVal":[],"doubleVal":[],"intVal":[],"stringVal":[],"scomplexVal":[],"int64Val":[],"boolVal":[],"uint32Val":[],"uint64Val":[],"dtype":1,"tensorShape":{"dim":[{"size":"128"}]}}}},"name":"module/MobilenetV1/Conv2d_6_depthwise/BatchNorm/moving_variance","op":"Const"},{"input":[],"attr":{"value":{"tensor":{"floatVal":[],"doubleVal":[],"intVal":[],"stringVal":[],"scomplexVal":[],"int64Val":[],"boolVal":[],"uint32Val":[],"uint64Val":[],"dtype":1,"tensorShape":{"dim":[{"size":"1"},{"size":"1"},{"size":"128"},{"size":"256"}]}}},"dtype":{"type":1}},"name":"module/MobilenetV1/Conv2d_6_pointwise/weights","op":"Const"},{"input":[],"attr":{"value":{"tensor":{"floatVal":[],"doubleVal":[],"intVal":[],"stringVal":[],"scomplexVal":[],"int64Val":[],"boolVal":[],"uint32Val":[],"uint64Val":[],"dtype":1,"tensorShape":{"dim":[{"size":"256"}]}}},"dtype":{"type":1}},"name":"module/MobilenetV1/Conv2d_6_pointwise/BatchNorm/gamma","op":"Const"},{"input":[],"attr":{"value":{"tensor":{"floatVal":[],"doubleVal":[],"intVal":[],"stringVal":[],"scomplexVal":[],"int64Val":[],"boolVal":[],"uint32Val":[],"uint64Val":[],"dtype":1,"tensorShape":{"dim":[{"size":"256"}]}}},"dtype":{"type":1}},"name":"module/MobilenetV1/Conv2d_6_pointwise/BatchNorm/beta","op":"Const"},{"input":[],"attr":{"value":{"tensor":{"floatVal":[],"doubleVal":[],"intVal":[],"stringVal":[],"scomplexVal":[],"int64Val":[],"boolVal":[],"uint32Val":[],"uint64Val":[],"dtype":1,"tensorShape":{"dim":[{"size":"256"}]}}},"dtype":{"type":1}},"name":"module/MobilenetV1/Conv2d_6_pointwise/BatchNorm/moving_mean","op":"Const"},{"input":[],"attr":{"value":{"tensor":{"floatVal":[],"doubleVal":[],"intVal":[],"stringVal":[],"scomplexVal":[],"int64Val":[],"boolVal":[],"uint32Val":[],"uint64Val":[],"dtype":1,"tensorShape":{"dim":[{"size":"256"}]}}},"dtype":{"type":1}},"name":"module/MobilenetV1/Conv2d_6_pointwise/BatchNorm/moving_variance","op":"Const"},{"input":[],"attr":{"value":{"tensor":{"floatVal":[],"doubleVal":[],"intVal":[],"stringVal":[],"scomplexVal":[],"int64Val":[],"boolVal":[],"uint32Val":[],"uint64Val":[],"dtype":1,"tensorShape":{"dim":[{"size":"3"},{"size":"3"},{"size":"256"},{"size":"1"}]}}},"dtype":{"type":1}},"name":"module/MobilenetV1/Conv2d_7_depthwise/depthwise_weights","op":"Const"},{"input":[],"attr":{"value":{"tensor":{"floatVal":[],"doubleVal":[],"intVal":[],"stringVal":[],"scomplexVal":[],"int64Val":[],"boolVal":[],"uint32Val":[],"uint64Val":[],"dtype":1,"tensorShape":{"dim":[{"size":"256"}]}}},"dtype":{"type":1}},"name":"module/MobilenetV1/Conv2d_7_depthwise/BatchNorm/gamma","op":"Const"},{"input":[],"attr":{"dtype":{"type":1},"value":{"tensor":{"floatVal":[],"doubleVal":[],"intVal":[],"stringVal":[],"scomplexVal":[],"int64Val":[],"boolVal":[],"uint32Val":[],"uint64Val":[],"dtype":1,"tensorShape":{"dim":[{"size":"256"}]}}}},"name":"module/MobilenetV1/Conv2d_7_depthwise/BatchNorm/beta","op":"Const"},{"input":[],"attr":{"value":{"tensor":{"floatVal":[],"doubleVal":[],"intVal":[],"stringVal":[],"scomplexVal":[],"int64Val":[],"boolVal":[],"uint32Val":[],"uint64Val":[],"dtype":1,"tensorShape":{"dim":[{"size":"256"}]}}},"dtype":{"type":1}},"name":"module/MobilenetV1/Conv2d_7_depthwise/BatchNorm/moving_mean","op":"Const"},{"input":[],"attr":{"dtype":{"type":1},"value":{"tensor":{"floatVal":[],"doubleVal":[],"intVal":[],"stringVal":[],"scomplexVal":[],"int64Val":[],"boolVal":[],"uint32Val":[],"uint64Val":[],"dtype":1,"tensorShape":{"dim":[{"size":"256"}]}}}},"name":"module/MobilenetV1/Conv2d_7_depthwise/BatchNorm/moving_variance","op":"Const"},{"input":[],"attr":{"value":{"tensor":{"floatVal":[],"doubleVal":[],"intVal":[],"stringVal":[],"scomplexVal":[],"int64Val":[],"boolVal":[],"uint32Val":[],"uint64Val":[],"dtype":1,"tensorShape":{"dim":[{"size":"1"},{"size":"1"},{"size":"256"},{"size":"256"}]}}},"dtype":{"type":1}},"name":"module/MobilenetV1/Conv2d_7_pointwise/weights","op":"Const"},{"input":[],"attr":{"dtype":{"type":1},"value":{"tensor":{"floatVal":[],"doubleVal":[],"intVal":[],"stringVal":[],"scomplexVal":[],"int64Val":[],"boolVal":[],"uint32Val":[],"uint64Val":[],"dtype":1,"tensorShape":{"dim":[{"size":"256"}]}}}},"name":"module/MobilenetV1/Conv2d_7_pointwise/BatchNorm/gamma","op":"Const"},{"input":[],"attr":{"value":{"tensor":{"floatVal":[],"doubleVal":[],"intVal":[],"stringVal":[],"scomplexVal":[],"int64Val":[],"boolVal":[],"uint32Val":[],"uint64Val":[],"dtype":1,"tensorShape":{"dim":[{"size":"256"}]}}},"dtype":{"type":1}},"name":"module/MobilenetV1/Conv2d_7_pointwise/BatchNorm/beta","op":"Const"},{"input":[],"attr":{"dtype":{"type":1},"value":{"tensor":{"floatVal":[],"doubleVal":[],"intVal":[],"stringVal":[],"scomplexVal":[],"int64Val":[],"boolVal":[],"uint32Val":[],"uint64Val":[],"dtype":1,"tensorShape":{"dim":[{"size":"256"}]}}}},"name":"module/MobilenetV1/Conv2d_7_pointwise/BatchNorm/moving_mean","op":"Const"},{"input":[],"attr":{"value":{"tensor":{"floatVal":[],"doubleVal":[],"intVal":[],"stringVal":[],"scomplexVal":[],"int64Val":[],"boolVal":[],"uint32Val":[],"uint64Val":[],"dtype":1,"tensorShape":{"dim":[{"size":"256"}]}}},"dtype":{"type":1}},"name":"module/MobilenetV1/Conv2d_7_pointwise/BatchNorm/moving_variance","op":"Const"},{"input":[],"attr":{"value":{"tensor":{"floatVal":[],"doubleVal":[],"intVal":[],"stringVal":[],"scomplexVal":[],"int64Val":[],"boolVal":[],"uint32Val":[],"uint64Val":[],"dtype":1,"tensorShape":{"dim":[{"size":"3"},{"size":"3"},{"size":"256"},{"size":"1"}]}}},"dtype":{"type":1}},"name":"module/MobilenetV1/Conv2d_8_depthwise/depthwise_weights","op":"Const"},{"input":[],"attr":{"value":{"tensor":{"floatVal":[],"doubleVal":[],"intVal":[],"stringVal":[],"scomplexVal":[],"int64Val":[],"boolVal":[],"uint32Val":[],"uint64Val":[],"dtype":1,"tensorShape":{"dim":[{"size":"256"}]}}},"dtype":{"type":1}},"name":"module/MobilenetV1/Conv2d_8_depthwise/BatchNorm/gamma","op":"Const"},{"input":[],"attr":{"value":{"tensor":{"floatVal":[],"doubleVal":[],"intVal":[],"stringVal":[],"scomplexVal":[],"int64Val":[],"boolVal":[],"uint32Val":[],"uint64Val":[],"dtype":1,"tensorShape":{"dim":[{"size":"256"}]}}},"dtype":{"type":1}},"name":"module/MobilenetV1/Conv2d_8_depthwise/BatchNorm/beta","op":"Const"},{"input":[],"attr":{"value":{"tensor":{"floatVal":[],"doubleVal":[],"intVal":[],"stringVal":[],"scomplexVal":[],"int64Val":[],"boolVal":[],"uint32Val":[],"uint64Val":[],"dtype":1,"tensorShape":{"dim":[{"size":"256"}]}}},"dtype":{"type":1}},"name":"module/MobilenetV1/Conv2d_8_depthwise/BatchNorm/moving_mean","op":"Const"},{"input":[],"attr":{"value":{"tensor":{"floatVal":[],"doubleVal":[],"intVal":[],"stringVal":[],"scomplexVal":[],"int64Val":[],"boolVal":[],"uint32Val":[],"uint64Val":[],"dtype":1,"tensorShape":{"dim":[{"size":"256"}]}}},"dtype":{"type":1}},"name":"module/MobilenetV1/Conv2d_8_depthwise/BatchNorm/moving_variance","op":"Const"},{"input":[],"attr":{"dtype":{"type":1},"value":{"tensor":{"floatVal":[],"doubleVal":[],"intVal":[],"stringVal":[],"scomplexVal":[],"int64Val":[],"boolVal":[],"uint32Val":[],"uint64Val":[],"dtype":1,"tensorShape":{"dim":[{"size":"1"},{"size":"1"},{"size":"256"},{"size":"256"}]}}}},"name":"module/MobilenetV1/Conv2d_8_pointwise/weights","op":"Const"},{"input":[],"attr":{"value":{"tensor":{"floatVal":[],"doubleVal":[],"intVal":[],"stringVal":[],"scomplexVal":[],"int64Val":[],"boolVal":[],"uint32Val":[],"uint64Val":[],"dtype":1,"tensorShape":{"dim":[{"size":"256"}]}}},"dtype":{"type":1}},"name":"module/MobilenetV1/Conv2d_8_pointwise/BatchNorm/gamma","op":"Const"},{"input":[],"attr":{"value":{"tensor":{"floatVal":[],"doubleVal":[],"intVal":[],"stringVal":[],"scomplexVal":[],"int64Val":[],"boolVal":[],"uint32Val":[],"uint64Val":[],"dtype":1,"tensorShape":{"dim":[{"size":"256"}]}}},"dtype":{"type":1}},"name":"module/MobilenetV1/Conv2d_8_pointwise/BatchNorm/beta","op":"Const"},{"input":[],"attr":{"value":{"tensor":{"floatVal":[],"doubleVal":[],"intVal":[],"stringVal":[],"scomplexVal":[],"int64Val":[],"boolVal":[],"uint32Val":[],"uint64Val":[],"dtype":1,"tensorShape":{"dim":[{"size":"256"}]}}},"dtype":{"type":1}},"name":"module/MobilenetV1/Conv2d_8_pointwise/BatchNorm/moving_mean","op":"Const"},{"input":[],"attr":{"value":{"tensor":{"floatVal":[],"doubleVal":[],"intVal":[],"stringVal":[],"scomplexVal":[],"int64Val":[],"boolVal":[],"uint32Val":[],"uint64Val":[],"dtype":1,"tensorShape":{"dim":[{"size":"256"}]}}},"dtype":{"type":1}},"name":"module/MobilenetV1/Conv2d_8_pointwise/BatchNorm/moving_variance","op":"Const"},{"input":[],"attr":{"dtype":{"type":1},"value":{"tensor":{"floatVal":[],"doubleVal":[],"intVal":[],"stringVal":[],"scomplexVal":[],"int64Val":[],"boolVal":[],"uint32Val":[],"uint64Val":[],"dtype":1,"tensorShape":{"dim":[{"size":"3"},{"size":"3"},{"size":"256"},{"size":"1"}]}}}},"name":"module/MobilenetV1/Conv2d_9_depthwise/depthwise_weights","op":"Const"},{"input":[],"attr":{"value":{"tensor":{"floatVal":[],"doubleVal":[],"intVal":[],"stringVal":[],"scomplexVal":[],"int64Val":[],"boolVal":[],"uint32Val":[],"uint64Val":[],"dtype":1,"tensorShape":{"dim":[{"size":"256"}]}}},"dtype":{"type":1}},"name":"module/MobilenetV1/Conv2d_9_depthwise/BatchNorm/gamma","op":"Const"},{"input":[],"attr":{"value":{"tensor":{"floatVal":[],"doubleVal":[],"intVal":[],"stringVal":[],"scomplexVal":[],"int64Val":[],"boolVal":[],"uint32Val":[],"uint64Val":[],"dtype":1,"tensorShape":{"dim":[{"size":"256"}]}}},"dtype":{"type":1}},"name":"module/MobilenetV1/Conv2d_9_depthwise/BatchNorm/beta","op":"Const"},{"input":[],"attr":{"value":{"tensor":{"floatVal":[],"doubleVal":[],"intVal":[],"stringVal":[],"scomplexVal":[],"int64Val":[],"boolVal":[],"uint32Val":[],"uint64Val":[],"dtype":1,"tensorShape":{"dim":[{"size":"256"}]}}},"dtype":{"type":1}},"name":"module/MobilenetV1/Conv2d_9_depthwise/BatchNorm/moving_mean","op":"Const"},{"input":[],"attr":{"dtype":{"type":1},"value":{"tensor":{"floatVal":[],"doubleVal":[],"intVal":[],"stringVal":[],"scomplexVal":[],"int64Val":[],"boolVal":[],"uint32Val":[],"uint64Val":[],"dtype":1,"tensorShape":{"dim":[{"size":"256"}]}}}},"name":"module/MobilenetV1/Conv2d_9_depthwise/BatchNorm/moving_variance","op":"Const"},{"input":[],"attr":{"value":{"tensor":{"floatVal":[],"doubleVal":[],"intVal":[],"stringVal":[],"scomplexVal":[],"int64Val":[],"boolVal":[],"uint32Val":[],"uint64Val":[],"dtype":1,"tensorShape":{"dim":[{"size":"1"},{"size":"1"},{"size":"256"},{"size":"256"}]}}},"dtype":{"type":1}},"name":"module/MobilenetV1/Conv2d_9_pointwise/weights","op":"Const"},{"input":[],"attr":{"value":{"tensor":{"floatVal":[],"doubleVal":[],"intVal":[],"stringVal":[],"scomplexVal":[],"int64Val":[],"boolVal":[],"uint32Val":[],"uint64Val":[],"dtype":1,"tensorShape":{"dim":[{"size":"256"}]}}},"dtype":{"type":1}},"name":"module/MobilenetV1/Conv2d_9_pointwise/BatchNorm/gamma","op":"Const"},{"input":[],"attr":{"value":{"tensor":{"floatVal":[],"doubleVal":[],"intVal":[],"stringVal":[],"scomplexVal":[],"int64Val":[],"boolVal":[],"uint32Val":[],"uint64Val":[],"dtype":1,"tensorShape":{"dim":[{"size":"256"}]}}},"dtype":{"type":1}},"name":"module/MobilenetV1/Conv2d_9_pointwise/BatchNorm/beta","op":"Const"},{"input":[],"attr":{"value":{"tensor":{"floatVal":[],"doubleVal":[],"intVal":[],"stringVal":[],"scomplexVal":[],"int64Val":[],"boolVal":[],"uint32Val":[],"uint64Val":[],"dtype":1,"tensorShape":{"dim":[{"size":"256"}]}}},"dtype":{"type":1}},"name":"module/MobilenetV1/Conv2d_9_pointwise/BatchNorm/moving_mean","op":"Const"},{"input":[],"attr":{"dtype":{"type":1},"value":{"tensor":{"floatVal":[],"doubleVal":[],"intVal":[],"stringVal":[],"scomplexVal":[],"int64Val":[],"boolVal":[],"uint32Val":[],"uint64Val":[],"dtype":1,"tensorShape":{"dim":[{"size":"256"}]}}}},"name":"module/MobilenetV1/Conv2d_9_pointwise/BatchNorm/moving_variance","op":"Const"},{"input":[],"attr":{"value":{"tensor":{"floatVal":[],"doubleVal":[],"intVal":[],"stringVal":[],"scomplexVal":[],"int64Val":[],"boolVal":[],"uint32Val":[],"uint64Val":[],"dtype":1,"tensorShape":{"dim":[{"size":"3"},{"size":"3"},{"size":"256"},{"size":"1"}]}}},"dtype":{"type":1}},"name":"module/MobilenetV1/Conv2d_10_depthwise/depthwise_weights","op":"Const"},{"input":[],"attr":{"value":{"tensor":{"floatVal":[],"doubleVal":[],"intVal":[],"stringVal":[],"scomplexVal":[],"int64Val":[],"boolVal":[],"uint32Val":[],"uint64Val":[],"dtype":1,"tensorShape":{"dim":[{"size":"256"}]}}},"dtype":{"type":1}},"name":"module/MobilenetV1/Conv2d_10_depthwise/BatchNorm/gamma","op":"Const"},{"input":[],"attr":{"dtype":{"type":1},"value":{"tensor":{"floatVal":[],"doubleVal":[],"intVal":[],"stringVal":[],"scomplexVal":[],"int64Val":[],"boolVal":[],"uint32Val":[],"uint64Val":[],"dtype":1,"tensorShape":{"dim":[{"size":"256"}]}}}},"name":"module/MobilenetV1/Conv2d_10_depthwise/BatchNorm/beta","op":"Const"},{"input":[],"attr":{"value":{"tensor":{"floatVal":[],"doubleVal":[],"intVal":[],"stringVal":[],"scomplexVal":[],"int64Val":[],"boolVal":[],"uint32Val":[],"uint64Val":[],"dtype":1,"tensorShape":{"dim":[{"size":"256"}]}}},"dtype":{"type":1}},"name":"module/MobilenetV1/Conv2d_10_depthwise/BatchNorm/moving_mean","op":"Const"},{"input":[],"attr":{"dtype":{"type":1},"value":{"tensor":{"floatVal":[],"doubleVal":[],"intVal":[],"stringVal":[],"scomplexVal":[],"int64Val":[],"boolVal":[],"uint32Val":[],"uint64Val":[],"dtype":1,"tensorShape":{"dim":[{"size":"256"}]}}}},"name":"module/MobilenetV1/Conv2d_10_depthwise/BatchNorm/moving_variance","op":"Const"},{"input":[],"attr":{"dtype":{"type":1},"value":{"tensor":{"floatVal":[],"doubleVal":[],"intVal":[],"stringVal":[],"scomplexVal":[],"int64Val":[],"boolVal":[],"uint32Val":[],"uint64Val":[],"dtype":1,"tensorShape":{"dim":[{"size":"1"},{"size":"1"},{"size":"256"},{"size":"256"}]}}}},"name":"module/MobilenetV1/Conv2d_10_pointwise/weights","op":"Const"},{"input":[],"attr":{"value":{"tensor":{"floatVal":[],"doubleVal":[],"intVal":[],"stringVal":[],"scomplexVal":[],"int64Val":[],"boolVal":[],"uint32Val":[],"uint64Val":[],"dtype":1,"tensorShape":{"dim":[{"size":"256"}]}}},"dtype":{"type":1}},"name":"module/MobilenetV1/Conv2d_10_pointwise/BatchNorm/gamma","op":"Const"},{"input":[],"attr":{"dtype":{"type":1},"value":{"tensor":{"floatVal":[],"doubleVal":[],"intVal":[],"stringVal":[],"scomplexVal":[],"int64Val":[],"boolVal":[],"uint32Val":[],"uint64Val":[],"dtype":1,"tensorShape":{"dim":[{"size":"256"}]}}}},"name":"module/MobilenetV1/Conv2d_10_pointwise/BatchNorm/beta","op":"Const"},{"input":[],"attr":{"value":{"tensor":{"floatVal":[],"doubleVal":[],"intVal":[],"stringVal":[],"scomplexVal":[],"int64Val":[],"boolVal":[],"uint32Val":[],"uint64Val":[],"dtype":1,"tensorShape":{"dim":[{"size":"256"}]}}},"dtype":{"type":1}},"name":"module/MobilenetV1/Conv2d_10_pointwise/BatchNorm/moving_mean","op":"Const"},{"input":[],"attr":{"value":{"tensor":{"floatVal":[],"doubleVal":[],"intVal":[],"stringVal":[],"scomplexVal":[],"int64Val":[],"boolVal":[],"uint32Val":[],"uint64Val":[],"dtype":1,"tensorShape":{"dim":[{"size":"256"}]}}},"dtype":{"type":1}},"name":"module/MobilenetV1/Conv2d_10_pointwise/BatchNorm/moving_variance","op":"Const"},{"input":[],"attr":{"value":{"tensor":{"floatVal":[],"doubleVal":[],"intVal":[],"stringVal":[],"scomplexVal":[],"int64Val":[],"boolVal":[],"uint32Val":[],"uint64Val":[],"dtype":1,"tensorShape":{"dim":[{"size":"3"},{"size":"3"},{"size":"256"},{"size":"1"}]}}},"dtype":{"type":1}},"name":"module/MobilenetV1/Conv2d_11_depthwise/depthwise_weights","op":"Const"},{"input":[],"attr":{"value":{"tensor":{"floatVal":[],"doubleVal":[],"intVal":[],"stringVal":[],"scomplexVal":[],"int64Val":[],"boolVal":[],"uint32Val":[],"uint64Val":[],"dtype":1,"tensorShape":{"dim":[{"size":"256"}]}}},"dtype":{"type":1}},"name":"module/MobilenetV1/Conv2d_11_depthwise/BatchNorm/gamma","op":"Const"},{"input":[],"attr":{"value":{"tensor":{"floatVal":[],"doubleVal":[],"intVal":[],"stringVal":[],"scomplexVal":[],"int64Val":[],"boolVal":[],"uint32Val":[],"uint64Val":[],"dtype":1,"tensorShape":{"dim":[{"size":"256"}]}}},"dtype":{"type":1}},"name":"module/MobilenetV1/Conv2d_11_depthwise/BatchNorm/beta","op":"Const"},{"input":[],"attr":{"dtype":{"type":1},"value":{"tensor":{"floatVal":[],"doubleVal":[],"intVal":[],"stringVal":[],"scomplexVal":[],"int64Val":[],"boolVal":[],"uint32Val":[],"uint64Val":[],"dtype":1,"tensorShape":{"dim":[{"size":"256"}]}}}},"name":"module/MobilenetV1/Conv2d_11_depthwise/BatchNorm/moving_mean","op":"Const"},{"input":[],"attr":{"value":{"tensor":{"floatVal":[],"doubleVal":[],"intVal":[],"stringVal":[],"scomplexVal":[],"int64Val":[],"boolVal":[],"uint32Val":[],"uint64Val":[],"dtype":1,"tensorShape":{"dim":[{"size":"256"}]}}},"dtype":{"type":1}},"name":"module/MobilenetV1/Conv2d_11_depthwise/BatchNorm/moving_variance","op":"Const"},{"input":[],"attr":{"dtype":{"type":1},"value":{"tensor":{"floatVal":[],"doubleVal":[],"intVal":[],"stringVal":[],"scomplexVal":[],"int64Val":[],"boolVal":[],"uint32Val":[],"uint64Val":[],"dtype":1,"tensorShape":{"dim":[{"size":"1"},{"size":"1"},{"size":"256"},{"size":"256"}]}}}},"name":"module/MobilenetV1/Conv2d_11_pointwise/weights","op":"Const"},{"input":[],"attr":{"dtype":{"type":1},"value":{"tensor":{"floatVal":[],"doubleVal":[],"intVal":[],"stringVal":[],"scomplexVal":[],"int64Val":[],"boolVal":[],"uint32Val":[],"uint64Val":[],"dtype":1,"tensorShape":{"dim":[{"size":"256"}]}}}},"name":"module/MobilenetV1/Conv2d_11_pointwise/BatchNorm/gamma","op":"Const"},{"input":[],"attr":{"value":{"tensor":{"floatVal":[],"doubleVal":[],"intVal":[],"stringVal":[],"scomplexVal":[],"int64Val":[],"boolVal":[],"uint32Val":[],"uint64Val":[],"dtype":1,"tensorShape":{"dim":[{"size":"256"}]}}},"dtype":{"type":1}},"name":"module/MobilenetV1/Conv2d_11_pointwise/BatchNorm/beta","op":"Const"},{"input":[],"attr":{"dtype":{"type":1},"value":{"tensor":{"floatVal":[],"doubleVal":[],"intVal":[],"stringVal":[],"scomplexVal":[],"int64Val":[],"boolVal":[],"uint32Val":[],"uint64Val":[],"dtype":1,"tensorShape":{"dim":[{"size":"256"}]}}}},"name":"module/MobilenetV1/Conv2d_11_pointwise/BatchNorm/moving_mean","op":"Const"},{"input":[],"attr":{"value":{"tensor":{"floatVal":[],"doubleVal":[],"intVal":[],"stringVal":[],"scomplexVal":[],"int64Val":[],"boolVal":[],"uint32Val":[],"uint64Val":[],"dtype":1,"tensorShape":{"dim":[{"size":"256"}]}}},"dtype":{"type":1}},"name":"module/MobilenetV1/Conv2d_11_pointwise/BatchNorm/moving_variance","op":"Const"},{"input":[],"attr":{"value":{"tensor":{"floatVal":[],"doubleVal":[],"intVal":[],"stringVal":[],"scomplexVal":[],"int64Val":[],"boolVal":[],"uint32Val":[],"uint64Val":[],"dtype":1,"tensorShape":{"dim":[{"size":"3"},{"size":"3"},{"size":"256"},{"size":"1"}]}}},"dtype":{"type":1}},"name":"module/MobilenetV1/Conv2d_12_depthwise/depthwise_weights","op":"Const"},{"input":[],"attr":{"dtype":{"type":1},"value":{"tensor":{"floatVal":[],"doubleVal":[],"intVal":[],"stringVal":[],"scomplexVal":[],"int64Val":[],"boolVal":[],"uint32Val":[],"uint64Val":[],"dtype":1,"tensorShape":{"dim":[{"size":"256"}]}}}},"name":"module/MobilenetV1/Conv2d_12_depthwise/BatchNorm/gamma","op":"Const"},{"input":[],"attr":{"value":{"tensor":{"floatVal":[],"doubleVal":[],"intVal":[],"stringVal":[],"scomplexVal":[],"int64Val":[],"boolVal":[],"uint32Val":[],"uint64Val":[],"dtype":1,"tensorShape":{"dim":[{"size":"256"}]}}},"dtype":{"type":1}},"name":"module/MobilenetV1/Conv2d_12_depthwise/BatchNorm/beta","op":"Const"},{"input":[],"attr":{"value":{"tensor":{"floatVal":[],"doubleVal":[],"intVal":[],"stringVal":[],"scomplexVal":[],"int64Val":[],"boolVal":[],"uint32Val":[],"uint64Val":[],"dtype":1,"tensorShape":{"dim":[{"size":"256"}]}}},"dtype":{"type":1}},"name":"module/MobilenetV1/Conv2d_12_depthwise/BatchNorm/moving_mean","op":"Const"},{"input":[],"attr":{"value":{"tensor":{"floatVal":[],"doubleVal":[],"intVal":[],"stringVal":[],"scomplexVal":[],"int64Val":[],"boolVal":[],"uint32Val":[],"uint64Val":[],"dtype":1,"tensorShape":{"dim":[{"size":"256"}]}}},"dtype":{"type":1}},"name":"module/MobilenetV1/Conv2d_12_depthwise/BatchNorm/moving_variance","op":"Const"},{"input":[],"attr":{"dtype":{"type":1},"value":{"tensor":{"floatVal":[],"doubleVal":[],"intVal":[],"stringVal":[],"scomplexVal":[],"int64Val":[],"boolVal":[],"uint32Val":[],"uint64Val":[],"dtype":1,"tensorShape":{"dim":[{"size":"1"},{"size":"1"},{"size":"256"},{"size":"512"}]}}}},"name":"module/MobilenetV1/Conv2d_12_pointwise/weights","op":"Const"},{"input":[],"attr":{"dtype":{"type":1},"value":{"tensor":{"floatVal":[],"doubleVal":[],"intVal":[],"stringVal":[],"scomplexVal":[],"int64Val":[],"boolVal":[],"uint32Val":[],"uint64Val":[],"dtype":1,"tensorShape":{"dim":[{"size":"512"}]}}}},"name":"module/MobilenetV1/Conv2d_12_pointwise/BatchNorm/gamma","op":"Const"},{"input":[],"attr":{"value":{"tensor":{"floatVal":[],"doubleVal":[],"intVal":[],"stringVal":[],"scomplexVal":[],"int64Val":[],"boolVal":[],"uint32Val":[],"uint64Val":[],"dtype":1,"tensorShape":{"dim":[{"size":"512"}]}}},"dtype":{"type":1}},"name":"module/MobilenetV1/Conv2d_12_pointwise/BatchNorm/beta","op":"Const"},{"input":[],"attr":{"dtype":{"type":1},"value":{"tensor":{"floatVal":[],"doubleVal":[],"intVal":[],"stringVal":[],"scomplexVal":[],"int64Val":[],"boolVal":[],"uint32Val":[],"uint64Val":[],"dtype":1,"tensorShape":{"dim":[{"size":"512"}]}}}},"name":"module/MobilenetV1/Conv2d_12_pointwise/BatchNorm/moving_mean","op":"Const"},{"input":[],"attr":{"value":{"tensor":{"floatVal":[],"doubleVal":[],"intVal":[],"stringVal":[],"scomplexVal":[],"int64Val":[],"boolVal":[],"uint32Val":[],"uint64Val":[],"dtype":1,"tensorShape":{"dim":[{"size":"512"}]}}},"dtype":{"type":1}},"name":"module/MobilenetV1/Conv2d_12_pointwise/BatchNorm/moving_variance","op":"Const"},{"input":[],"attr":{"value":{"tensor":{"floatVal":[],"doubleVal":[],"intVal":[],"stringVal":[],"scomplexVal":[],"int64Val":[],"boolVal":[],"uint32Val":[],"uint64Val":[],"dtype":1,"tensorShape":{"dim":[{"size":"3"},{"size":"3"},{"size":"512"},{"size":"1"}]}}},"dtype":{"type":1}},"name":"module/MobilenetV1/Conv2d_13_depthwise/depthwise_weights","op":"Const"},{"input":[],"attr":{"value":{"tensor":{"floatVal":[],"doubleVal":[],"intVal":[],"stringVal":[],"scomplexVal":[],"int64Val":[],"boolVal":[],"uint32Val":[],"uint64Val":[],"dtype":1,"tensorShape":{"dim":[{"size":"512"}]}}},"dtype":{"type":1}},"name":"module/MobilenetV1/Conv2d_13_depthwise/BatchNorm/gamma","op":"Const"},{"input":[],"attr":{"value":{"tensor":{"floatVal":[],"doubleVal":[],"intVal":[],"stringVal":[],"scomplexVal":[],"int64Val":[],"boolVal":[],"uint32Val":[],"uint64Val":[],"dtype":1,"tensorShape":{"dim":[{"size":"512"}]}}},"dtype":{"type":1}},"name":"module/MobilenetV1/Conv2d_13_depthwise/BatchNorm/beta","op":"Const"},{"input":[],"attr":{"value":{"tensor":{"floatVal":[],"doubleVal":[],"intVal":[],"stringVal":[],"scomplexVal":[],"int64Val":[],"boolVal":[],"uint32Val":[],"uint64Val":[],"dtype":1,"tensorShape":{"dim":[{"size":"512"}]}}},"dtype":{"type":1}},"name":"module/MobilenetV1/Conv2d_13_depthwise/BatchNorm/moving_mean","op":"Const"},{"input":[],"attr":{"value":{"tensor":{"floatVal":[],"doubleVal":[],"intVal":[],"stringVal":[],"scomplexVal":[],"int64Val":[],"boolVal":[],"uint32Val":[],"uint64Val":[],"dtype":1,"tensorShape":{"dim":[{"size":"512"}]}}},"dtype":{"type":1}},"name":"module/MobilenetV1/Conv2d_13_depthwise/BatchNorm/moving_variance","op":"Const"},{"input":[],"attr":{"value":{"tensor":{"floatVal":[],"doubleVal":[],"intVal":[],"stringVal":[],"scomplexVal":[],"int64Val":[],"boolVal":[],"uint32Val":[],"uint64Val":[],"dtype":1,"tensorShape":{"dim":[{"size":"1"},{"size":"1"},{"size":"512"},{"size":"512"}]}}},"dtype":{"type":1}},"name":"module/MobilenetV1/Conv2d_13_pointwise/weights","op":"Const"},{"input":[],"attr":{"value":{"tensor":{"floatVal":[],"doubleVal":[],"intVal":[],"stringVal":[],"scomplexVal":[],"int64Val":[],"boolVal":[],"uint32Val":[],"uint64Val":[],"dtype":1,"tensorShape":{"dim":[{"size":"512"}]}}},"dtype":{"type":1}},"name":"module/MobilenetV1/Conv2d_13_pointwise/BatchNorm/gamma","op":"Const"},{"input":[],"attr":{"dtype":{"type":1},"value":{"tensor":{"floatVal":[],"doubleVal":[],"intVal":[],"stringVal":[],"scomplexVal":[],"int64Val":[],"boolVal":[],"uint32Val":[],"uint64Val":[],"dtype":1,"tensorShape":{"dim":[{"size":"512"}]}}}},"name":"module/MobilenetV1/Conv2d_13_pointwise/BatchNorm/beta","op":"Const"},{"input":[],"attr":{"dtype":{"type":1},"value":{"tensor":{"floatVal":[],"doubleVal":[],"intVal":[],"stringVal":[],"scomplexVal":[],"int64Val":[],"boolVal":[],"uint32Val":[],"uint64Val":[],"dtype":1,"tensorShape":{"dim":[{"size":"512"}]}}}},"name":"module/MobilenetV1/Conv2d_13_pointwise/BatchNorm/moving_mean","op":"Const"},{"input":[],"attr":{"value":{"tensor":{"floatVal":[],"doubleVal":[],"intVal":[],"stringVal":[],"scomplexVal":[],"int64Val":[],"boolVal":[],"uint32Val":[],"uint64Val":[],"dtype":1,"tensorShape":{"dim":[{"size":"512"}]}}},"dtype":{"type":1}},"name":"module/MobilenetV1/Conv2d_13_pointwise/BatchNorm/moving_variance","op":"Const"},{"input":[],"attr":{"value":{"tensor":{"floatVal":[],"doubleVal":[],"intVal":[],"stringVal":[],"scomplexVal":[],"int64Val":[],"boolVal":[],"uint32Val":[],"uint64Val":[],"dtype":3,"tensorShape":{"dim":[{"size":"2"}]}}},"dtype":{"type":3}},"name":"module_apply_default/MobilenetV1/Logits/global_pool/reduction_indices","op":"Const"},{"input":[],"attr":{"value":{"tensor":{"floatVal":[],"doubleVal":[],"intVal":[],"stringVal":[],"scomplexVal":[],"int64Val":[],"boolVal":[],"uint32Val":[],"uint64Val":[],"dtype":1,"tensorShape":{"dim":[{"size":"512"},{"size":"106"}]}}},"dtype":{"type":1}},"name":"final_retrain_ops/weights/final_weights","op":"Const"},{"input":[],"attr":{"dtype":{"type":1},"value":{"tensor":{"floatVal":[],"doubleVal":[],"intVal":[],"stringVal":[],"scomplexVal":[],"int64Val":[],"boolVal":[],"uint32Val":[],"uint64Val":[],"dtype":1,"tensorShape":{"dim":[{"size":"106"}]}}}},"name":"final_retrain_ops/biases/final_biases","op":"Const"},{"input":["Placeholder","module_apply_default/hub_input/Mul/y"],"attr":{"T":{"type":1}},"name":"module_apply_default/hub_input/Mul","op":"Mul"},{"input":["module_apply_default/hub_input/Mul","module_apply_default/hub_input/Sub/y"],"attr":{"T":{"type":1}},"name":"module_apply_default/hub_input/Sub","op":"Sub"},{"input":["module_apply_default/hub_input/Sub","module/MobilenetV1/Conv2d_0/weights"],"attr":{"strides":{"list":{"s":[],"i":["1","2","2","1"],"f":[],"b":[],"type":[],"shape":[],"tensor":[],"func":[]}},"data_format":{"s":[78,72,87,67]},"use_cudnn_on_gpu":{"b":true},"padding":{"s":[83,65,77,69]},"dilations":{"list":{"s":[],"i":["1","1","1","1"],"f":[],"b":[],"type":[],"shape":[],"tensor":[],"func":[]}},"T":{"type":1}},"name":"module_apply_default/MobilenetV1/MobilenetV1/Conv2d_0/Conv2D","op":"Conv2D"},{"input":["module_apply_default/MobilenetV1/MobilenetV1/Conv2d_0/Conv2D","module/MobilenetV1/Conv2d_0/BatchNorm/gamma","module/MobilenetV1/Conv2d_0/BatchNorm/beta","module/MobilenetV1/Conv2d_0/BatchNorm/moving_mean","module/MobilenetV1/Conv2d_0/BatchNorm/moving_variance"],"attr":{"data_format":{"s":[78,72,87,67]},"is_training":{"b":false},"epsilon":{"f":0.0010000000474974513},"T":{"type":1}},"name":"module_apply_default/MobilenetV1/MobilenetV1/Conv2d_0/BatchNorm/FusedBatchNorm","op":"FusedBatchNorm"},{"input":["module_apply_default/MobilenetV1/MobilenetV1/Conv2d_0/BatchNorm/FusedBatchNorm"],"attr":{"T":{"type":1}},"name":"module_apply_default/MobilenetV1/MobilenetV1/Conv2d_0/Relu6","op":"Relu6"},{"input":["module_apply_default/MobilenetV1/MobilenetV1/Conv2d_0/Relu6","module/MobilenetV1/Conv2d_1_depthwise/depthwise_weights"],"attr":{"T":{"type":1},"data_format":{"s":[78,72,87,67]},"strides":{"list":{"s":[],"i":["1","1","1","1"],"f":[],"b":[],"type":[],"shape":[],"tensor":[],"func":[]}},"padding":{"s":[83,65,77,69]},"dilations":{"list":{"s":[],"i":["1","1","1","1"],"f":[],"b":[],"type":[],"shape":[],"tensor":[],"func":[]}}},"name":"module_apply_default/MobilenetV1/MobilenetV1/Conv2d_1_depthwise/depthwise","op":"DepthwiseConv2dNative"},{"input":["module_apply_default/MobilenetV1/MobilenetV1/Conv2d_1_depthwise/depthwise","module/MobilenetV1/Conv2d_1_depthwise/BatchNorm/gamma","module/MobilenetV1/Conv2d_1_depthwise/BatchNorm/beta","module/MobilenetV1/Conv2d_1_depthwise/BatchNorm/moving_mean","module/MobilenetV1/Conv2d_1_depthwise/BatchNorm/moving_variance"],"attr":{"epsilon":{"f":0.0010000000474974513},"T":{"type":1},"data_format":{"s":[78,72,87,67]},"is_training":{"b":false}},"name":"module_apply_default/MobilenetV1/MobilenetV1/Conv2d_1_depthwise/BatchNorm/FusedBatchNorm","op":"FusedBatchNorm"},{"input":["module_apply_default/MobilenetV1/MobilenetV1/Conv2d_1_depthwise/BatchNorm/FusedBatchNorm"],"attr":{"T":{"type":1}},"name":"module_apply_default/MobilenetV1/MobilenetV1/Conv2d_1_depthwise/Relu6","op":"Relu6"},{"input":["module_apply_default/MobilenetV1/MobilenetV1/Conv2d_1_depthwise/Relu6","module/MobilenetV1/Conv2d_1_pointwise/weights"],"attr":{"strides":{"list":{"s":[],"i":["1","1","1","1"],"f":[],"b":[],"type":[],"shape":[],"tensor":[],"func":[]}},"data_format":{"s":[78,72,87,67]},"use_cudnn_on_gpu":{"b":true},"padding":{"s":[83,65,77,69]},"dilations":{"list":{"s":[],"i":["1","1","1","1"],"f":[],"b":[],"type":[],"shape":[],"tensor":[],"func":[]}},"T":{"type":1}},"name":"module_apply_default/MobilenetV1/MobilenetV1/Conv2d_1_pointwise/Conv2D","op":"Conv2D"},{"input":["module_apply_default/MobilenetV1/MobilenetV1/Conv2d_1_pointwise/Conv2D","module/MobilenetV1/Conv2d_1_pointwise/BatchNorm/gamma","module/MobilenetV1/Conv2d_1_pointwise/BatchNorm/beta","module/MobilenetV1/Conv2d_1_pointwise/BatchNorm/moving_mean","module/MobilenetV1/Conv2d_1_pointwise/BatchNorm/moving_variance"],"attr":{"epsilon":{"f":0.0010000000474974513},"T":{"type":1},"data_format":{"s":[78,72,87,67]},"is_training":{"b":false}},"name":"module_apply_default/MobilenetV1/MobilenetV1/Conv2d_1_pointwise/BatchNorm/FusedBatchNorm","op":"FusedBatchNorm"},{"input":["module_apply_default/MobilenetV1/MobilenetV1/Conv2d_1_pointwise/BatchNorm/FusedBatchNorm"],"attr":{"T":{"type":1}},"name":"module_apply_default/MobilenetV1/MobilenetV1/Conv2d_1_pointwise/Relu6","op":"Relu6"},{"input":["module_apply_default/MobilenetV1/MobilenetV1/Conv2d_1_pointwise/Relu6","module/MobilenetV1/Conv2d_2_depthwise/depthwise_weights"],"attr":{"T":{"type":1},"data_format":{"s":[78,72,87,67]},"strides":{"list":{"s":[],"i":["1","2","2","1"],"f":[],"b":[],"type":[],"shape":[],"tensor":[],"func":[]}},"dilations":{"list":{"s":[],"i":["1","1","1","1"],"f":[],"b":[],"type":[],"shape":[],"tensor":[],"func":[]}},"padding":{"s":[83,65,77,69]}},"name":"module_apply_default/MobilenetV1/MobilenetV1/Conv2d_2_depthwise/depthwise","op":"DepthwiseConv2dNative"},{"input":["module_apply_default/MobilenetV1/MobilenetV1/Conv2d_2_depthwise/depthwise","module/MobilenetV1/Conv2d_2_depthwise/BatchNorm/gamma","module/MobilenetV1/Conv2d_2_depthwise/BatchNorm/beta","module/MobilenetV1/Conv2d_2_depthwise/BatchNorm/moving_mean","module/MobilenetV1/Conv2d_2_depthwise/BatchNorm/moving_variance"],"attr":{"T":{"type":1},"data_format":{"s":[78,72,87,67]},"is_training":{"b":false},"epsilon":{"f":0.0010000000474974513}},"name":"module_apply_default/MobilenetV1/MobilenetV1/Conv2d_2_depthwise/BatchNorm/FusedBatchNorm","op":"FusedBatchNorm"},{"input":["module_apply_default/MobilenetV1/MobilenetV1/Conv2d_2_depthwise/BatchNorm/FusedBatchNorm"],"attr":{"T":{"type":1}},"name":"module_apply_default/MobilenetV1/MobilenetV1/Conv2d_2_depthwise/Relu6","op":"Relu6"},{"input":["module_apply_default/MobilenetV1/MobilenetV1/Conv2d_2_depthwise/Relu6","module/MobilenetV1/Conv2d_2_pointwise/weights"],"attr":{"T":{"type":1},"data_format":{"s":[78,72,87,67]},"strides":{"list":{"s":[],"i":["1","1","1","1"],"f":[],"b":[],"type":[],"shape":[],"tensor":[],"func":[]}},"use_cudnn_on_gpu":{"b":true},"padding":{"s":[83,65,77,69]},"dilations":{"list":{"s":[],"i":["1","1","1","1"],"f":[],"b":[],"type":[],"shape":[],"tensor":[],"func":[]}}},"name":"module_apply_default/MobilenetV1/MobilenetV1/Conv2d_2_pointwise/Conv2D","op":"Conv2D"},{"input":["module_apply_default/MobilenetV1/MobilenetV1/Conv2d_2_pointwise/Conv2D","module/MobilenetV1/Conv2d_2_pointwise/BatchNorm/gamma","module/MobilenetV1/Conv2d_2_pointwise/BatchNorm/beta","module/MobilenetV1/Conv2d_2_pointwise/BatchNorm/moving_mean","module/MobilenetV1/Conv2d_2_pointwise/BatchNorm/moving_variance"],"attr":{"epsilon":{"f":0.0010000000474974513},"T":{"type":1},"data_format":{"s":[78,72,87,67]},"is_training":{"b":false}},"name":"module_apply_default/MobilenetV1/MobilenetV1/Conv2d_2_pointwise/BatchNorm/FusedBatchNorm","op":"FusedBatchNorm"},{"input":["module_apply_default/MobilenetV1/MobilenetV1/Conv2d_2_pointwise/BatchNorm/FusedBatchNorm"],"attr":{"T":{"type":1}},"name":"module_apply_default/MobilenetV1/MobilenetV1/Conv2d_2_pointwise/Relu6","op":"Relu6"},{"input":["module_apply_default/MobilenetV1/MobilenetV1/Conv2d_2_pointwise/Relu6","module/MobilenetV1/Conv2d_3_depthwise/depthwise_weights"],"attr":{"T":{"type":1},"strides":{"list":{"s":[],"i":["1","1","1","1"],"f":[],"b":[],"type":[],"shape":[],"tensor":[],"func":[]}},"data_format":{"s":[78,72,87,67]},"padding":{"s":[83,65,77,69]},"dilations":{"list":{"s":[],"i":["1","1","1","1"],"f":[],"b":[],"type":[],"shape":[],"tensor":[],"func":[]}}},"name":"module_apply_default/MobilenetV1/MobilenetV1/Conv2d_3_depthwise/depthwise","op":"DepthwiseConv2dNative"},{"input":["module_apply_default/MobilenetV1/MobilenetV1/Conv2d_3_depthwise/depthwise","module/MobilenetV1/Conv2d_3_depthwise/BatchNorm/gamma","module/MobilenetV1/Conv2d_3_depthwise/BatchNorm/beta","module/MobilenetV1/Conv2d_3_depthwise/BatchNorm/moving_mean","module/MobilenetV1/Conv2d_3_depthwise/BatchNorm/moving_variance"],"attr":{"data_format":{"s":[78,72,87,67]},"is_training":{"b":false},"epsilon":{"f":0.0010000000474974513},"T":{"type":1}},"name":"module_apply_default/MobilenetV1/MobilenetV1/Conv2d_3_depthwise/BatchNorm/FusedBatchNorm","op":"FusedBatchNorm"},{"input":["module_apply_default/MobilenetV1/MobilenetV1/Conv2d_3_depthwise/BatchNorm/FusedBatchNorm"],"attr":{"T":{"type":1}},"name":"module_apply_default/MobilenetV1/MobilenetV1/Conv2d_3_depthwise/Relu6","op":"Relu6"},{"input":["module_apply_default/MobilenetV1/MobilenetV1/Conv2d_3_depthwise/Relu6","module/MobilenetV1/Conv2d_3_pointwise/weights"],"attr":{"padding":{"s":[83,65,77,69]},"dilations":{"list":{"s":[],"i":["1","1","1","1"],"f":[],"b":[],"type":[],"shape":[],"tensor":[],"func":[]}},"T":{"type":1},"data_format":{"s":[78,72,87,67]},"strides":{"list":{"s":[],"i":["1","1","1","1"],"f":[],"b":[],"type":[],"shape":[],"tensor":[],"func":[]}},"use_cudnn_on_gpu":{"b":true}},"name":"module_apply_default/MobilenetV1/MobilenetV1/Conv2d_3_pointwise/Conv2D","op":"Conv2D"},{"input":["module_apply_default/MobilenetV1/MobilenetV1/Conv2d_3_pointwise/Conv2D","module/MobilenetV1/Conv2d_3_pointwise/BatchNorm/gamma","module/MobilenetV1/Conv2d_3_pointwise/BatchNorm/beta","module/MobilenetV1/Conv2d_3_pointwise/BatchNorm/moving_mean","module/MobilenetV1/Conv2d_3_pointwise/BatchNorm/moving_variance"],"attr":{"T":{"type":1},"data_format":{"s":[78,72,87,67]},"is_training":{"b":false},"epsilon":{"f":0.0010000000474974513}},"name":"module_apply_default/MobilenetV1/MobilenetV1/Conv2d_3_pointwise/BatchNorm/FusedBatchNorm","op":"FusedBatchNorm"},{"input":["module_apply_default/MobilenetV1/MobilenetV1/Conv2d_3_pointwise/BatchNorm/FusedBatchNorm"],"attr":{"T":{"type":1}},"name":"module_apply_default/MobilenetV1/MobilenetV1/Conv2d_3_pointwise/Relu6","op":"Relu6"},{"input":["module_apply_default/MobilenetV1/MobilenetV1/Conv2d_3_pointwise/Relu6","module/MobilenetV1/Conv2d_4_depthwise/depthwise_weights"],"attr":{"T":{"type":1},"data_format":{"s":[78,72,87,67]},"strides":{"list":{"s":[],"i":["1","2","2","1"],"f":[],"b":[],"type":[],"shape":[],"tensor":[],"func":[]}},"padding":{"s":[83,65,77,69]},"dilations":{"list":{"s":[],"i":["1","1","1","1"],"f":[],"b":[],"type":[],"shape":[],"tensor":[],"func":[]}}},"name":"module_apply_default/MobilenetV1/MobilenetV1/Conv2d_4_depthwise/depthwise","op":"DepthwiseConv2dNative"},{"input":["module_apply_default/MobilenetV1/MobilenetV1/Conv2d_4_depthwise/depthwise","module/MobilenetV1/Conv2d_4_depthwise/BatchNorm/gamma","module/MobilenetV1/Conv2d_4_depthwise/BatchNorm/beta","module/MobilenetV1/Conv2d_4_depthwise/BatchNorm/moving_mean","module/MobilenetV1/Conv2d_4_depthwise/BatchNorm/moving_variance"],"attr":{"data_format":{"s":[78,72,87,67]},"is_training":{"b":false},"epsilon":{"f":0.0010000000474974513},"T":{"type":1}},"name":"module_apply_default/MobilenetV1/MobilenetV1/Conv2d_4_depthwise/BatchNorm/FusedBatchNorm","op":"FusedBatchNorm"},{"input":["module_apply_default/MobilenetV1/MobilenetV1/Conv2d_4_depthwise/BatchNorm/FusedBatchNorm"],"attr":{"T":{"type":1}},"name":"module_apply_default/MobilenetV1/MobilenetV1/Conv2d_4_depthwise/Relu6","op":"Relu6"},{"input":["module_apply_default/MobilenetV1/MobilenetV1/Conv2d_4_depthwise/Relu6","module/MobilenetV1/Conv2d_4_pointwise/weights"],"attr":{"dilations":{"list":{"s":[],"i":["1","1","1","1"],"f":[],"b":[],"type":[],"shape":[],"tensor":[],"func":[]}},"T":{"type":1},"data_format":{"s":[78,72,87,67]},"strides":{"list":{"s":[],"i":["1","1","1","1"],"f":[],"b":[],"type":[],"shape":[],"tensor":[],"func":[]}},"use_cudnn_on_gpu":{"b":true},"padding":{"s":[83,65,77,69]}},"name":"module_apply_default/MobilenetV1/MobilenetV1/Conv2d_4_pointwise/Conv2D","op":"Conv2D"},{"input":["module_apply_default/MobilenetV1/MobilenetV1/Conv2d_4_pointwise/Conv2D","module/MobilenetV1/Conv2d_4_pointwise/BatchNorm/gamma","module/MobilenetV1/Conv2d_4_pointwise/BatchNorm/beta","module/MobilenetV1/Conv2d_4_pointwise/BatchNorm/moving_mean","module/MobilenetV1/Conv2d_4_pointwise/BatchNorm/moving_variance"],"attr":{"T":{"type":1},"data_format":{"s":[78,72,87,67]},"is_training":{"b":false},"epsilon":{"f":0.0010000000474974513}},"name":"module_apply_default/MobilenetV1/MobilenetV1/Conv2d_4_pointwise/BatchNorm/FusedBatchNorm","op":"FusedBatchNorm"},{"input":["module_apply_default/MobilenetV1/MobilenetV1/Conv2d_4_pointwise/BatchNorm/FusedBatchNorm"],"attr":{"T":{"type":1}},"name":"module_apply_default/MobilenetV1/MobilenetV1/Conv2d_4_pointwise/Relu6","op":"Relu6"},{"input":["module_apply_default/MobilenetV1/MobilenetV1/Conv2d_4_pointwise/Relu6","module/MobilenetV1/Conv2d_5_depthwise/depthwise_weights"],"attr":{"strides":{"list":{"s":[],"i":["1","1","1","1"],"f":[],"b":[],"type":[],"shape":[],"tensor":[],"func":[]}},"data_format":{"s":[78,72,87,67]},"dilations":{"list":{"s":[],"i":["1","1","1","1"],"f":[],"b":[],"type":[],"shape":[],"tensor":[],"func":[]}},"padding":{"s":[83,65,77,69]},"T":{"type":1}},"name":"module_apply_default/MobilenetV1/MobilenetV1/Conv2d_5_depthwise/depthwise","op":"DepthwiseConv2dNative"},{"input":["module_apply_default/MobilenetV1/MobilenetV1/Conv2d_5_depthwise/depthwise","module/MobilenetV1/Conv2d_5_depthwise/BatchNorm/gamma","module/MobilenetV1/Conv2d_5_depthwise/BatchNorm/beta","module/MobilenetV1/Conv2d_5_depthwise/BatchNorm/moving_mean","module/MobilenetV1/Conv2d_5_depthwise/BatchNorm/moving_variance"],"attr":{"epsilon":{"f":0.0010000000474974513},"T":{"type":1},"data_format":{"s":[78,72,87,67]},"is_training":{"b":false}},"name":"module_apply_default/MobilenetV1/MobilenetV1/Conv2d_5_depthwise/BatchNorm/FusedBatchNorm","op":"FusedBatchNorm"},{"input":["module_apply_default/MobilenetV1/MobilenetV1/Conv2d_5_depthwise/BatchNorm/FusedBatchNorm"],"attr":{"T":{"type":1}},"name":"module_apply_default/MobilenetV1/MobilenetV1/Conv2d_5_depthwise/Relu6","op":"Relu6"},{"input":["module_apply_default/MobilenetV1/MobilenetV1/Conv2d_5_depthwise/Relu6","module/MobilenetV1/Conv2d_5_pointwise/weights"],"attr":{"dilations":{"list":{"s":[],"i":["1","1","1","1"],"f":[],"b":[],"type":[],"shape":[],"tensor":[],"func":[]}},"T":{"type":1},"strides":{"list":{"s":[],"i":["1","1","1","1"],"f":[],"b":[],"type":[],"shape":[],"tensor":[],"func":[]}},"data_format":{"s":[78,72,87,67]},"use_cudnn_on_gpu":{"b":true},"padding":{"s":[83,65,77,69]}},"name":"module_apply_default/MobilenetV1/MobilenetV1/Conv2d_5_pointwise/Conv2D","op":"Conv2D"},{"input":["module_apply_default/MobilenetV1/MobilenetV1/Conv2d_5_pointwise/Conv2D","module/MobilenetV1/Conv2d_5_pointwise/BatchNorm/gamma","module/MobilenetV1/Conv2d_5_pointwise/BatchNorm/beta","module/MobilenetV1/Conv2d_5_pointwise/BatchNorm/moving_mean","module/MobilenetV1/Conv2d_5_pointwise/BatchNorm/moving_variance"],"attr":{"T":{"type":1},"data_format":{"s":[78,72,87,67]},"is_training":{"b":false},"epsilon":{"f":0.0010000000474974513}},"name":"module_apply_default/MobilenetV1/MobilenetV1/Conv2d_5_pointwise/BatchNorm/FusedBatchNorm","op":"FusedBatchNorm"},{"input":["module_apply_default/MobilenetV1/MobilenetV1/Conv2d_5_pointwise/BatchNorm/FusedBatchNorm"],"attr":{"T":{"type":1}},"name":"module_apply_default/MobilenetV1/MobilenetV1/Conv2d_5_pointwise/Relu6","op":"Relu6"},{"input":["module_apply_default/MobilenetV1/MobilenetV1/Conv2d_5_pointwise/Relu6","module/MobilenetV1/Conv2d_6_depthwise/depthwise_weights"],"attr":{"padding":{"s":[83,65,77,69]},"dilations":{"list":{"s":[],"i":["1","1","1","1"],"f":[],"b":[],"type":[],"shape":[],"tensor":[],"func":[]}},"T":{"type":1},"data_format":{"s":[78,72,87,67]},"strides":{"list":{"s":[],"i":["1","2","2","1"],"f":[],"b":[],"type":[],"shape":[],"tensor":[],"func":[]}}},"name":"module_apply_default/MobilenetV1/MobilenetV1/Conv2d_6_depthwise/depthwise","op":"DepthwiseConv2dNative"},{"input":["module_apply_default/MobilenetV1/MobilenetV1/Conv2d_6_depthwise/depthwise","module/MobilenetV1/Conv2d_6_depthwise/BatchNorm/gamma","module/MobilenetV1/Conv2d_6_depthwise/BatchNorm/beta","module/MobilenetV1/Conv2d_6_depthwise/BatchNorm/moving_mean","module/MobilenetV1/Conv2d_6_depthwise/BatchNorm/moving_variance"],"attr":{"epsilon":{"f":0.0010000000474974513},"T":{"type":1},"data_format":{"s":[78,72,87,67]},"is_training":{"b":false}},"name":"module_apply_default/MobilenetV1/MobilenetV1/Conv2d_6_depthwise/BatchNorm/FusedBatchNorm","op":"FusedBatchNorm"},{"input":["module_apply_default/MobilenetV1/MobilenetV1/Conv2d_6_depthwise/BatchNorm/FusedBatchNorm"],"attr":{"T":{"type":1}},"name":"module_apply_default/MobilenetV1/MobilenetV1/Conv2d_6_depthwise/Relu6","op":"Relu6"},{"input":["module_apply_default/MobilenetV1/MobilenetV1/Conv2d_6_depthwise/Relu6","module/MobilenetV1/Conv2d_6_pointwise/weights"],"attr":{"strides":{"list":{"s":[],"i":["1","1","1","1"],"f":[],"b":[],"type":[],"shape":[],"tensor":[],"func":[]}},"data_format":{"s":[78,72,87,67]},"use_cudnn_on_gpu":{"b":true},"padding":{"s":[83,65,77,69]},"dilations":{"list":{"s":[],"i":["1","1","1","1"],"f":[],"b":[],"type":[],"shape":[],"tensor":[],"func":[]}},"T":{"type":1}},"name":"module_apply_default/MobilenetV1/MobilenetV1/Conv2d_6_pointwise/Conv2D","op":"Conv2D"},{"input":["module_apply_default/MobilenetV1/MobilenetV1/Conv2d_6_pointwise/Conv2D","module/MobilenetV1/Conv2d_6_pointwise/BatchNorm/gamma","module/MobilenetV1/Conv2d_6_pointwise/BatchNorm/beta","module/MobilenetV1/Conv2d_6_pointwise/BatchNorm/moving_mean","module/MobilenetV1/Conv2d_6_pointwise/BatchNorm/moving_variance"],"attr":{"epsilon":{"f":0.0010000000474974513},"T":{"type":1},"data_format":{"s":[78,72,87,67]},"is_training":{"b":false}},"name":"module_apply_default/MobilenetV1/MobilenetV1/Conv2d_6_pointwise/BatchNorm/FusedBatchNorm","op":"FusedBatchNorm"},{"input":["module_apply_default/MobilenetV1/MobilenetV1/Conv2d_6_pointwise/BatchNorm/FusedBatchNorm"],"attr":{"T":{"type":1}},"name":"module_apply_default/MobilenetV1/MobilenetV1/Conv2d_6_pointwise/Relu6","op":"Relu6"},{"input":["module_apply_default/MobilenetV1/MobilenetV1/Conv2d_6_pointwise/Relu6","module/MobilenetV1/Conv2d_7_depthwise/depthwise_weights"],"attr":{"data_format":{"s":[78,72,87,67]},"strides":{"list":{"s":[],"i":["1","1","1","1"],"f":[],"b":[],"type":[],"shape":[],"tensor":[],"func":[]}},"padding":{"s":[83,65,77,69]},"dilations":{"list":{"s":[],"i":["1","1","1","1"],"f":[],"b":[],"type":[],"shape":[],"tensor":[],"func":[]}},"T":{"type":1}},"name":"module_apply_default/MobilenetV1/MobilenetV1/Conv2d_7_depthwise/depthwise","op":"DepthwiseConv2dNative"},{"input":["module_apply_default/MobilenetV1/MobilenetV1/Conv2d_7_depthwise/depthwise","module/MobilenetV1/Conv2d_7_depthwise/BatchNorm/gamma","module/MobilenetV1/Conv2d_7_depthwise/BatchNorm/beta","module/MobilenetV1/Conv2d_7_depthwise/BatchNorm/moving_mean","module/MobilenetV1/Conv2d_7_depthwise/BatchNorm/moving_variance"],"attr":{"data_format":{"s":[78,72,87,67]},"is_training":{"b":false},"epsilon":{"f":0.0010000000474974513},"T":{"type":1}},"name":"module_apply_default/MobilenetV1/MobilenetV1/Conv2d_7_depthwise/BatchNorm/FusedBatchNorm","op":"FusedBatchNorm"},{"input":["module_apply_default/MobilenetV1/MobilenetV1/Conv2d_7_depthwise/BatchNorm/FusedBatchNorm"],"attr":{"T":{"type":1}},"name":"module_apply_default/MobilenetV1/MobilenetV1/Conv2d_7_depthwise/Relu6","op":"Relu6"},{"input":["module_apply_default/MobilenetV1/MobilenetV1/Conv2d_7_depthwise/Relu6","module/MobilenetV1/Conv2d_7_pointwise/weights"],"attr":{"padding":{"s":[83,65,77,69]},"dilations":{"list":{"s":[],"i":["1","1","1","1"],"f":[],"b":[],"type":[],"shape":[],"tensor":[],"func":[]}},"T":{"type":1},"strides":{"list":{"s":[],"i":["1","1","1","1"],"f":[],"b":[],"type":[],"shape":[],"tensor":[],"func":[]}},"data_format":{"s":[78,72,87,67]},"use_cudnn_on_gpu":{"b":true}},"name":"module_apply_default/MobilenetV1/MobilenetV1/Conv2d_7_pointwise/Conv2D","op":"Conv2D"},{"input":["module_apply_default/MobilenetV1/MobilenetV1/Conv2d_7_pointwise/Conv2D","module/MobilenetV1/Conv2d_7_pointwise/BatchNorm/gamma","module/MobilenetV1/Conv2d_7_pointwise/BatchNorm/beta","module/MobilenetV1/Conv2d_7_pointwise/BatchNorm/moving_mean","module/MobilenetV1/Conv2d_7_pointwise/BatchNorm/moving_variance"],"attr":{"data_format":{"s":[78,72,87,67]},"is_training":{"b":false},"epsilon":{"f":0.0010000000474974513},"T":{"type":1}},"name":"module_apply_default/MobilenetV1/MobilenetV1/Conv2d_7_pointwise/BatchNorm/FusedBatchNorm","op":"FusedBatchNorm"},{"input":["module_apply_default/MobilenetV1/MobilenetV1/Conv2d_7_pointwise/BatchNorm/FusedBatchNorm"],"attr":{"T":{"type":1}},"name":"module_apply_default/MobilenetV1/MobilenetV1/Conv2d_7_pointwise/Relu6","op":"Relu6"},{"input":["module_apply_default/MobilenetV1/MobilenetV1/Conv2d_7_pointwise/Relu6","module/MobilenetV1/Conv2d_8_depthwise/depthwise_weights"],"attr":{"padding":{"s":[83,65,77,69]},"dilations":{"list":{"s":[],"i":["1","1","1","1"],"f":[],"b":[],"type":[],"shape":[],"tensor":[],"func":[]}},"T":{"type":1},"data_format":{"s":[78,72,87,67]},"strides":{"list":{"s":[],"i":["1","1","1","1"],"f":[],"b":[],"type":[],"shape":[],"tensor":[],"func":[]}}},"name":"module_apply_default/MobilenetV1/MobilenetV1/Conv2d_8_depthwise/depthwise","op":"DepthwiseConv2dNative"},{"input":["module_apply_default/MobilenetV1/MobilenetV1/Conv2d_8_depthwise/depthwise","module/MobilenetV1/Conv2d_8_depthwise/BatchNorm/gamma","module/MobilenetV1/Conv2d_8_depthwise/BatchNorm/beta","module/MobilenetV1/Conv2d_8_depthwise/BatchNorm/moving_mean","module/MobilenetV1/Conv2d_8_depthwise/BatchNorm/moving_variance"],"attr":{"T":{"type":1},"data_format":{"s":[78,72,87,67]},"is_training":{"b":false},"epsilon":{"f":0.0010000000474974513}},"name":"module_apply_default/MobilenetV1/MobilenetV1/Conv2d_8_depthwise/BatchNorm/FusedBatchNorm","op":"FusedBatchNorm"},{"input":["module_apply_default/MobilenetV1/MobilenetV1/Conv2d_8_depthwise/BatchNorm/FusedBatchNorm"],"attr":{"T":{"type":1}},"name":"module_apply_default/MobilenetV1/MobilenetV1/Conv2d_8_depthwise/Relu6","op":"Relu6"},{"input":["module_apply_default/MobilenetV1/MobilenetV1/Conv2d_8_depthwise/Relu6","module/MobilenetV1/Conv2d_8_pointwise/weights"],"attr":{"dilations":{"list":{"s":[],"i":["1","1","1","1"],"f":[],"b":[],"type":[],"shape":[],"tensor":[],"func":[]}},"T":{"type":1},"strides":{"list":{"s":[],"i":["1","1","1","1"],"f":[],"b":[],"type":[],"shape":[],"tensor":[],"func":[]}},"data_format":{"s":[78,72,87,67]},"use_cudnn_on_gpu":{"b":true},"padding":{"s":[83,65,77,69]}},"name":"module_apply_default/MobilenetV1/MobilenetV1/Conv2d_8_pointwise/Conv2D","op":"Conv2D"},{"input":["module_apply_default/MobilenetV1/MobilenetV1/Conv2d_8_pointwise/Conv2D","module/MobilenetV1/Conv2d_8_pointwise/BatchNorm/gamma","module/MobilenetV1/Conv2d_8_pointwise/BatchNorm/beta","module/MobilenetV1/Conv2d_8_pointwise/BatchNorm/moving_mean","module/MobilenetV1/Conv2d_8_pointwise/BatchNorm/moving_variance"],"attr":{"T":{"type":1},"data_format":{"s":[78,72,87,67]},"is_training":{"b":false},"epsilon":{"f":0.0010000000474974513}},"name":"module_apply_default/MobilenetV1/MobilenetV1/Conv2d_8_pointwise/BatchNorm/FusedBatchNorm","op":"FusedBatchNorm"},{"input":["module_apply_default/MobilenetV1/MobilenetV1/Conv2d_8_pointwise/BatchNorm/FusedBatchNorm"],"attr":{"T":{"type":1}},"name":"module_apply_default/MobilenetV1/MobilenetV1/Conv2d_8_pointwise/Relu6","op":"Relu6"},{"input":["module_apply_default/MobilenetV1/MobilenetV1/Conv2d_8_pointwise/Relu6","module/MobilenetV1/Conv2d_9_depthwise/depthwise_weights"],"attr":{"padding":{"s":[83,65,77,69]},"dilations":{"list":{"s":[],"i":["1","1","1","1"],"f":[],"b":[],"type":[],"shape":[],"tensor":[],"func":[]}},"T":{"type":1},"strides":{"list":{"s":[],"i":["1","1","1","1"],"f":[],"b":[],"type":[],"shape":[],"tensor":[],"func":[]}},"data_format":{"s":[78,72,87,67]}},"name":"module_apply_default/MobilenetV1/MobilenetV1/Conv2d_9_depthwise/depthwise","op":"DepthwiseConv2dNative"},{"input":["module_apply_default/MobilenetV1/MobilenetV1/Conv2d_9_depthwise/depthwise","module/MobilenetV1/Conv2d_9_depthwise/BatchNorm/gamma","module/MobilenetV1/Conv2d_9_depthwise/BatchNorm/beta","module/MobilenetV1/Conv2d_9_depthwise/BatchNorm/moving_mean","module/MobilenetV1/Conv2d_9_depthwise/BatchNorm/moving_variance"],"attr":{"data_format":{"s":[78,72,87,67]},"is_training":{"b":false},"epsilon":{"f":0.0010000000474974513},"T":{"type":1}},"name":"module_apply_default/MobilenetV1/MobilenetV1/Conv2d_9_depthwise/BatchNorm/FusedBatchNorm","op":"FusedBatchNorm"},{"input":["module_apply_default/MobilenetV1/MobilenetV1/Conv2d_9_depthwise/BatchNorm/FusedBatchNorm"],"attr":{"T":{"type":1}},"name":"module_apply_default/MobilenetV1/MobilenetV1/Conv2d_9_depthwise/Relu6","op":"Relu6"},{"input":["module_apply_default/MobilenetV1/MobilenetV1/Conv2d_9_depthwise/Relu6","module/MobilenetV1/Conv2d_9_pointwise/weights"],"attr":{"dilations":{"list":{"s":[],"i":["1","1","1","1"],"f":[],"b":[],"type":[],"shape":[],"tensor":[],"func":[]}},"T":{"type":1},"strides":{"list":{"s":[],"i":["1","1","1","1"],"f":[],"b":[],"type":[],"shape":[],"tensor":[],"func":[]}},"data_format":{"s":[78,72,87,67]},"use_cudnn_on_gpu":{"b":true},"padding":{"s":[83,65,77,69]}},"name":"module_apply_default/MobilenetV1/MobilenetV1/Conv2d_9_pointwise/Conv2D","op":"Conv2D"},{"input":["module_apply_default/MobilenetV1/MobilenetV1/Conv2d_9_pointwise/Conv2D","module/MobilenetV1/Conv2d_9_pointwise/BatchNorm/gamma","module/MobilenetV1/Conv2d_9_pointwise/BatchNorm/beta","module/MobilenetV1/Conv2d_9_pointwise/BatchNorm/moving_mean","module/MobilenetV1/Conv2d_9_pointwise/BatchNorm/moving_variance"],"attr":{"epsilon":{"f":0.0010000000474974513},"T":{"type":1},"data_format":{"s":[78,72,87,67]},"is_training":{"b":false}},"name":"module_apply_default/MobilenetV1/MobilenetV1/Conv2d_9_pointwise/BatchNorm/FusedBatchNorm","op":"FusedBatchNorm"},{"input":["module_apply_default/MobilenetV1/MobilenetV1/Conv2d_9_pointwise/BatchNorm/FusedBatchNorm"],"attr":{"T":{"type":1}},"name":"module_apply_default/MobilenetV1/MobilenetV1/Conv2d_9_pointwise/Relu6","op":"Relu6"},{"input":["module_apply_default/MobilenetV1/MobilenetV1/Conv2d_9_pointwise/Relu6","module/MobilenetV1/Conv2d_10_depthwise/depthwise_weights"],"attr":{"padding":{"s":[83,65,77,69]},"dilations":{"list":{"s":[],"i":["1","1","1","1"],"f":[],"b":[],"type":[],"shape":[],"tensor":[],"func":[]}},"T":{"type":1},"data_format":{"s":[78,72,87,67]},"strides":{"list":{"s":[],"i":["1","1","1","1"],"f":[],"b":[],"type":[],"shape":[],"tensor":[],"func":[]}}},"name":"module_apply_default/MobilenetV1/MobilenetV1/Conv2d_10_depthwise/depthwise","op":"DepthwiseConv2dNative"},{"input":["module_apply_default/MobilenetV1/MobilenetV1/Conv2d_10_depthwise/depthwise","module/MobilenetV1/Conv2d_10_depthwise/BatchNorm/gamma","module/MobilenetV1/Conv2d_10_depthwise/BatchNorm/beta","module/MobilenetV1/Conv2d_10_depthwise/BatchNorm/moving_mean","module/MobilenetV1/Conv2d_10_depthwise/BatchNorm/moving_variance"],"attr":{"epsilon":{"f":0.0010000000474974513},"T":{"type":1},"data_format":{"s":[78,72,87,67]},"is_training":{"b":false}},"name":"module_apply_default/MobilenetV1/MobilenetV1/Conv2d_10_depthwise/BatchNorm/FusedBatchNorm","op":"FusedBatchNorm"},{"input":["module_apply_default/MobilenetV1/MobilenetV1/Conv2d_10_depthwise/BatchNorm/FusedBatchNorm"],"attr":{"T":{"type":1}},"name":"module_apply_default/MobilenetV1/MobilenetV1/Conv2d_10_depthwise/Relu6","op":"Relu6"},{"input":["module_apply_default/MobilenetV1/MobilenetV1/Conv2d_10_depthwise/Relu6","module/MobilenetV1/Conv2d_10_pointwise/weights"],"attr":{"T":{"type":1},"data_format":{"s":[78,72,87,67]},"strides":{"list":{"s":[],"i":["1","1","1","1"],"f":[],"b":[],"type":[],"shape":[],"tensor":[],"func":[]}},"use_cudnn_on_gpu":{"b":true},"padding":{"s":[83,65,77,69]},"dilations":{"list":{"s":[],"i":["1","1","1","1"],"f":[],"b":[],"type":[],"shape":[],"tensor":[],"func":[]}}},"name":"module_apply_default/MobilenetV1/MobilenetV1/Conv2d_10_pointwise/Conv2D","op":"Conv2D"},{"input":["module_apply_default/MobilenetV1/MobilenetV1/Conv2d_10_pointwise/Conv2D","module/MobilenetV1/Conv2d_10_pointwise/BatchNorm/gamma","module/MobilenetV1/Conv2d_10_pointwise/BatchNorm/beta","module/MobilenetV1/Conv2d_10_pointwise/BatchNorm/moving_mean","module/MobilenetV1/Conv2d_10_pointwise/BatchNorm/moving_variance"],"attr":{"epsilon":{"f":0.0010000000474974513},"T":{"type":1},"data_format":{"s":[78,72,87,67]},"is_training":{"b":false}},"name":"module_apply_default/MobilenetV1/MobilenetV1/Conv2d_10_pointwise/BatchNorm/FusedBatchNorm","op":"FusedBatchNorm"},{"input":["module_apply_default/MobilenetV1/MobilenetV1/Conv2d_10_pointwise/BatchNorm/FusedBatchNorm"],"attr":{"T":{"type":1}},"name":"module_apply_default/MobilenetV1/MobilenetV1/Conv2d_10_pointwise/Relu6","op":"Relu6"},{"input":["module_apply_default/MobilenetV1/MobilenetV1/Conv2d_10_pointwise/Relu6","module/MobilenetV1/Conv2d_11_depthwise/depthwise_weights"],"attr":{"T":{"type":1},"data_format":{"s":[78,72,87,67]},"strides":{"list":{"s":[],"i":["1","1","1","1"],"f":[],"b":[],"type":[],"shape":[],"tensor":[],"func":[]}},"dilations":{"list":{"s":[],"i":["1","1","1","1"],"f":[],"b":[],"type":[],"shape":[],"tensor":[],"func":[]}},"padding":{"s":[83,65,77,69]}},"name":"module_apply_default/MobilenetV1/MobilenetV1/Conv2d_11_depthwise/depthwise","op":"DepthwiseConv2dNative"},{"input":["module_apply_default/MobilenetV1/MobilenetV1/Conv2d_11_depthwise/depthwise","module/MobilenetV1/Conv2d_11_depthwise/BatchNorm/gamma","module/MobilenetV1/Conv2d_11_depthwise/BatchNorm/beta","module/MobilenetV1/Conv2d_11_depthwise/BatchNorm/moving_mean","module/MobilenetV1/Conv2d_11_depthwise/BatchNorm/moving_variance"],"attr":{"T":{"type":1},"data_format":{"s":[78,72,87,67]},"is_training":{"b":false},"epsilon":{"f":0.0010000000474974513}},"name":"module_apply_default/MobilenetV1/MobilenetV1/Conv2d_11_depthwise/BatchNorm/FusedBatchNorm","op":"FusedBatchNorm"},{"input":["module_apply_default/MobilenetV1/MobilenetV1/Conv2d_11_depthwise/BatchNorm/FusedBatchNorm"],"attr":{"T":{"type":1}},"name":"module_apply_default/MobilenetV1/MobilenetV1/Conv2d_11_depthwise/Relu6","op":"Relu6"},{"input":["module_apply_default/MobilenetV1/MobilenetV1/Conv2d_11_depthwise/Relu6","module/MobilenetV1/Conv2d_11_pointwise/weights"],"attr":{"dilations":{"list":{"s":[],"i":["1","1","1","1"],"f":[],"b":[],"type":[],"shape":[],"tensor":[],"func":[]}},"T":{"type":1},"data_format":{"s":[78,72,87,67]},"strides":{"list":{"s":[],"i":["1","1","1","1"],"f":[],"b":[],"type":[],"shape":[],"tensor":[],"func":[]}},"use_cudnn_on_gpu":{"b":true},"padding":{"s":[83,65,77,69]}},"name":"module_apply_default/MobilenetV1/MobilenetV1/Conv2d_11_pointwise/Conv2D","op":"Conv2D"},{"input":["module_apply_default/MobilenetV1/MobilenetV1/Conv2d_11_pointwise/Conv2D","module/MobilenetV1/Conv2d_11_pointwise/BatchNorm/gamma","module/MobilenetV1/Conv2d_11_pointwise/BatchNorm/beta","module/MobilenetV1/Conv2d_11_pointwise/BatchNorm/moving_mean","module/MobilenetV1/Conv2d_11_pointwise/BatchNorm/moving_variance"],"attr":{"epsilon":{"f":0.0010000000474974513},"T":{"type":1},"data_format":{"s":[78,72,87,67]},"is_training":{"b":false}},"name":"module_apply_default/MobilenetV1/MobilenetV1/Conv2d_11_pointwise/BatchNorm/FusedBatchNorm","op":"FusedBatchNorm"},{"input":["module_apply_default/MobilenetV1/MobilenetV1/Conv2d_11_pointwise/BatchNorm/FusedBatchNorm"],"attr":{"T":{"type":1}},"name":"module_apply_default/MobilenetV1/MobilenetV1/Conv2d_11_pointwise/Relu6","op":"Relu6"},{"input":["module_apply_default/MobilenetV1/MobilenetV1/Conv2d_11_pointwise/Relu6","module/MobilenetV1/Conv2d_12_depthwise/depthwise_weights"],"attr":{"dilations":{"list":{"s":[],"i":["1","1","1","1"],"f":[],"b":[],"type":[],"shape":[],"tensor":[],"func":[]}},"padding":{"s":[83,65,77,69]},"T":{"type":1},"strides":{"list":{"s":[],"i":["1","2","2","1"],"f":[],"b":[],"type":[],"shape":[],"tensor":[],"func":[]}},"data_format":{"s":[78,72,87,67]}},"name":"module_apply_default/MobilenetV1/MobilenetV1/Conv2d_12_depthwise/depthwise","op":"DepthwiseConv2dNative"},{"input":["module_apply_default/MobilenetV1/MobilenetV1/Conv2d_12_depthwise/depthwise","module/MobilenetV1/Conv2d_12_depthwise/BatchNorm/gamma","module/MobilenetV1/Conv2d_12_depthwise/BatchNorm/beta","module/MobilenetV1/Conv2d_12_depthwise/BatchNorm/moving_mean","module/MobilenetV1/Conv2d_12_depthwise/BatchNorm/moving_variance"],"attr":{"data_format":{"s":[78,72,87,67]},"is_training":{"b":false},"epsilon":{"f":0.0010000000474974513},"T":{"type":1}},"name":"module_apply_default/MobilenetV1/MobilenetV1/Conv2d_12_depthwise/BatchNorm/FusedBatchNorm","op":"FusedBatchNorm"},{"input":["module_apply_default/MobilenetV1/MobilenetV1/Conv2d_12_depthwise/BatchNorm/FusedBatchNorm"],"attr":{"T":{"type":1}},"name":"module_apply_default/MobilenetV1/MobilenetV1/Conv2d_12_depthwise/Relu6","op":"Relu6"},{"input":["module_apply_default/MobilenetV1/MobilenetV1/Conv2d_12_depthwise/Relu6","module/MobilenetV1/Conv2d_12_pointwise/weights"],"attr":{"dilations":{"list":{"s":[],"i":["1","1","1","1"],"f":[],"b":[],"type":[],"shape":[],"tensor":[],"func":[]}},"T":{"type":1},"data_format":{"s":[78,72,87,67]},"strides":{"list":{"s":[],"i":["1","1","1","1"],"f":[],"b":[],"type":[],"shape":[],"tensor":[],"func":[]}},"use_cudnn_on_gpu":{"b":true},"padding":{"s":[83,65,77,69]}},"name":"module_apply_default/MobilenetV1/MobilenetV1/Conv2d_12_pointwise/Conv2D","op":"Conv2D"},{"input":["module_apply_default/MobilenetV1/MobilenetV1/Conv2d_12_pointwise/Conv2D","module/MobilenetV1/Conv2d_12_pointwise/BatchNorm/gamma","module/MobilenetV1/Conv2d_12_pointwise/BatchNorm/beta","module/MobilenetV1/Conv2d_12_pointwise/BatchNorm/moving_mean","module/MobilenetV1/Conv2d_12_pointwise/BatchNorm/moving_variance"],"attr":{"data_format":{"s":[78,72,87,67]},"is_training":{"b":false},"epsilon":{"f":0.0010000000474974513},"T":{"type":1}},"name":"module_apply_default/MobilenetV1/MobilenetV1/Conv2d_12_pointwise/BatchNorm/FusedBatchNorm","op":"FusedBatchNorm"},{"input":["module_apply_default/MobilenetV1/MobilenetV1/Conv2d_12_pointwise/BatchNorm/FusedBatchNorm"],"attr":{"T":{"type":1}},"name":"module_apply_default/MobilenetV1/MobilenetV1/Conv2d_12_pointwise/Relu6","op":"Relu6"},{"input":["module_apply_default/MobilenetV1/MobilenetV1/Conv2d_12_pointwise/Relu6","module/MobilenetV1/Conv2d_13_depthwise/depthwise_weights"],"attr":{"T":{"type":1},"data_format":{"s":[78,72,87,67]},"strides":{"list":{"s":[],"i":["1","1","1","1"],"f":[],"b":[],"type":[],"shape":[],"tensor":[],"func":[]}},"padding":{"s":[83,65,77,69]},"dilations":{"list":{"s":[],"i":["1","1","1","1"],"f":[],"b":[],"type":[],"shape":[],"tensor":[],"func":[]}}},"name":"module_apply_default/MobilenetV1/MobilenetV1/Conv2d_13_depthwise/depthwise","op":"DepthwiseConv2dNative"},{"input":["module_apply_default/MobilenetV1/MobilenetV1/Conv2d_13_depthwise/depthwise","module/MobilenetV1/Conv2d_13_depthwise/BatchNorm/gamma","module/MobilenetV1/Conv2d_13_depthwise/BatchNorm/beta","module/MobilenetV1/Conv2d_13_depthwise/BatchNorm/moving_mean","module/MobilenetV1/Conv2d_13_depthwise/BatchNorm/moving_variance"],"attr":{"epsilon":{"f":0.0010000000474974513},"T":{"type":1},"data_format":{"s":[78,72,87,67]},"is_training":{"b":false}},"name":"module_apply_default/MobilenetV1/MobilenetV1/Conv2d_13_depthwise/BatchNorm/FusedBatchNorm","op":"FusedBatchNorm"},{"input":["module_apply_default/MobilenetV1/MobilenetV1/Conv2d_13_depthwise/BatchNorm/FusedBatchNorm"],"attr":{"T":{"type":1}},"name":"module_apply_default/MobilenetV1/MobilenetV1/Conv2d_13_depthwise/Relu6","op":"Relu6"},{"input":["module_apply_default/MobilenetV1/MobilenetV1/Conv2d_13_depthwise/Relu6","module/MobilenetV1/Conv2d_13_pointwise/weights"],"attr":{"padding":{"s":[83,65,77,69]},"dilations":{"list":{"s":[],"i":["1","1","1","1"],"f":[],"b":[],"type":[],"shape":[],"tensor":[],"func":[]}},"T":{"type":1},"strides":{"list":{"s":[],"i":["1","1","1","1"],"f":[],"b":[],"type":[],"shape":[],"tensor":[],"func":[]}},"data_format":{"s":[78,72,87,67]},"use_cudnn_on_gpu":{"b":true}},"name":"module_apply_default/MobilenetV1/MobilenetV1/Conv2d_13_pointwise/Conv2D","op":"Conv2D"},{"input":["module_apply_default/MobilenetV1/MobilenetV1/Conv2d_13_pointwise/Conv2D","module/MobilenetV1/Conv2d_13_pointwise/BatchNorm/gamma","module/MobilenetV1/Conv2d_13_pointwise/BatchNorm/beta","module/MobilenetV1/Conv2d_13_pointwise/BatchNorm/moving_mean","module/MobilenetV1/Conv2d_13_pointwise/BatchNorm/moving_variance"],"attr":{"data_format":{"s":[78,72,87,67]},"is_training":{"b":false},"epsilon":{"f":0.0010000000474974513},"T":{"type":1}},"name":"module_apply_default/MobilenetV1/MobilenetV1/Conv2d_13_pointwise/BatchNorm/FusedBatchNorm","op":"FusedBatchNorm"},{"input":["module_apply_default/MobilenetV1/MobilenetV1/Conv2d_13_pointwise/BatchNorm/FusedBatchNorm"],"attr":{"T":{"type":1}},"name":"module_apply_default/MobilenetV1/MobilenetV1/Conv2d_13_pointwise/Relu6","op":"Relu6"},{"input":["module_apply_default/MobilenetV1/MobilenetV1/Conv2d_13_pointwise/Relu6","module_apply_default/MobilenetV1/Logits/global_pool/reduction_indices"],"attr":{"Tidx":{"type":3},"keep_dims":{"b":true},"T":{"type":1}},"name":"module_apply_default/MobilenetV1/Logits/global_pool","op":"Mean"},{"input":["module_apply_default/MobilenetV1/Logits/global_pool"],"attr":{"T":{"type":1},"squeeze_dims":{"list":{"s":[],"i":["1","2"],"f":[],"b":[],"type":[],"shape":[],"tensor":[],"func":[]}}},"name":"module_apply_default/hub_output/feature_vector/SpatialSqueeze","op":"Squeeze"},{"input":["module_apply_default/hub_output/feature_vector/SpatialSqueeze"],"attr":{"dtype":{"type":1},"shape":{"shape":{"dim":[{"size":"-1"},{"size":"512"}]}}},"name":"input/BottleneckInputPlaceholder","op":"PlaceholderWithDefault"},{"input":["input/BottleneckInputPlaceholder","final_retrain_ops/weights/final_weights"],"attr":{"transpose_a":{"b":false},"transpose_b":{"b":false},"T":{"type":1}},"name":"final_retrain_ops/Wx_plus_b/MatMul","op":"MatMul"},{"input":["final_retrain_ops/Wx_plus_b/MatMul","final_retrain_ops/biases/final_biases"],"attr":{"T":{"type":1}},"name":"final_retrain_ops/Wx_plus_b/add","op":"Add"},{"input":["final_retrain_ops/Wx_plus_b/add"],"attr":{"T":{"type":1}},"name":"final_result","op":"Softmax"}],"library":{"function":[],"gradient":[]},"versions":{"badConsumers":[]}},"weightsManifest":[{"paths":["group1-shard1of1"],"weights":[{"dtype":"float32","shape":[],"name":"module_apply_default/hub_input/Mul/y"},{"dtype":"float32","shape":[],"name":"module_apply_default/hub_input/Sub/y"},{"dtype":"float32","shape":[3,3,3,16],"name":"module/MobilenetV1/Conv2d_0/weights"},{"dtype":"float32","shape":[16],"name":"module/MobilenetV1/Conv2d_0/BatchNorm/gamma"},{"dtype":"float32","shape":[16],"name":"module/MobilenetV1/Conv2d_0/BatchNorm/beta"},{"dtype":"float32","shape":[16],"name":"module/MobilenetV1/Conv2d_0/BatchNorm/moving_mean"},{"dtype":"float32","shape":[16],"name":"module/MobilenetV1/Conv2d_0/BatchNorm/moving_variance"},{"dtype":"float32","shape":[3,3,16,1],"name":"module/MobilenetV1/Conv2d_1_depthwise/depthwise_weights"},{"dtype":"float32","shape":[16],"name":"module/MobilenetV1/Conv2d_1_depthwise/BatchNorm/gamma"},{"dtype":"float32","shape":[16],"name":"module/MobilenetV1/Conv2d_1_depthwise/BatchNorm/beta"},{"dtype":"float32","shape":[16],"name":"module/MobilenetV1/Conv2d_1_depthwise/BatchNorm/moving_mean"},{"dtype":"float32","shape":[16],"name":"module/MobilenetV1/Conv2d_1_depthwise/BatchNorm/moving_variance"},{"dtype":"float32","shape":[1,1,16,32],"name":"module/MobilenetV1/Conv2d_1_pointwise/weights"},{"dtype":"float32","shape":[32],"name":"module/MobilenetV1/Conv2d_1_pointwise/BatchNorm/gamma"},{"dtype":"float32","shape":[32],"name":"module/MobilenetV1/Conv2d_1_pointwise/BatchNorm/beta"},{"dtype":"float32","shape":[32],"name":"module/MobilenetV1/Conv2d_1_pointwise/BatchNorm/moving_mean"},{"dtype":"float32","shape":[32],"name":"module/MobilenetV1/Conv2d_1_pointwise/BatchNorm/moving_variance"},{"dtype":"float32","shape":[3,3,32,1],"name":"module/MobilenetV1/Conv2d_2_depthwise/depthwise_weights"},{"dtype":"float32","shape":[32],"name":"module/MobilenetV1/Conv2d_2_depthwise/BatchNorm/gamma"},{"dtype":"float32","shape":[32],"name":"module/MobilenetV1/Conv2d_2_depthwise/BatchNorm/beta"},{"dtype":"float32","shape":[32],"name":"module/MobilenetV1/Conv2d_2_depthwise/BatchNorm/moving_mean"},{"dtype":"float32","shape":[32],"name":"module/MobilenetV1/Conv2d_2_depthwise/BatchNorm/moving_variance"},{"dtype":"float32","shape":[1,1,32,64],"name":"module/MobilenetV1/Conv2d_2_pointwise/weights"},{"dtype":"float32","shape":[64],"name":"module/MobilenetV1/Conv2d_2_pointwise/BatchNorm/gamma"},{"dtype":"float32","shape":[64],"name":"module/MobilenetV1/Conv2d_2_pointwise/BatchNorm/beta"},{"dtype":"float32","shape":[64],"name":"module/MobilenetV1/Conv2d_2_pointwise/BatchNorm/moving_mean"},{"dtype":"float32","shape":[64],"name":"module/MobilenetV1/Conv2d_2_pointwise/BatchNorm/moving_variance"},{"dtype":"float32","shape":[3,3,64,1],"name":"module/MobilenetV1/Conv2d_3_depthwise/depthwise_weights"},{"dtype":"float32","shape":[64],"name":"module/MobilenetV1/Conv2d_3_depthwise/BatchNorm/gamma"},{"dtype":"float32","shape":[64],"name":"module/MobilenetV1/Conv2d_3_depthwise/BatchNorm/beta"},{"dtype":"float32","shape":[64],"name":"module/MobilenetV1/Conv2d_3_depthwise/BatchNorm/moving_mean"},{"dtype":"float32","shape":[64],"name":"module/MobilenetV1/Conv2d_3_depthwise/BatchNorm/moving_variance"},{"dtype":"float32","shape":[1,1,64,64],"name":"module/MobilenetV1/Conv2d_3_pointwise/weights"},{"dtype":"float32","shape":[64],"name":"module/MobilenetV1/Conv2d_3_pointwise/BatchNorm/gamma"},{"dtype":"float32","shape":[64],"name":"module/MobilenetV1/Conv2d_3_pointwise/BatchNorm/beta"},{"dtype":"float32","shape":[64],"name":"module/MobilenetV1/Conv2d_3_pointwise/BatchNorm/moving_mean"},{"dtype":"float32","shape":[64],"name":"module/MobilenetV1/Conv2d_3_pointwise/BatchNorm/moving_variance"},{"dtype":"float32","shape":[3,3,64,1],"name":"module/MobilenetV1/Conv2d_4_depthwise/depthwise_weights"},{"dtype":"float32","shape":[64],"name":"module/MobilenetV1/Conv2d_4_depthwise/BatchNorm/gamma"},{"dtype":"float32","shape":[64],"name":"module/MobilenetV1/Conv2d_4_depthwise/BatchNorm/beta"},{"dtype":"float32","shape":[64],"name":"module/MobilenetV1/Conv2d_4_depthwise/BatchNorm/moving_mean"},{"dtype":"float32","shape":[64],"name":"module/MobilenetV1/Conv2d_4_depthwise/BatchNorm/moving_variance"},{"dtype":"float32","shape":[1,1,64,128],"name":"module/MobilenetV1/Conv2d_4_pointwise/weights"},{"dtype":"float32","shape":[128],"name":"module/MobilenetV1/Conv2d_4_pointwise/BatchNorm/gamma"},{"dtype":"float32","shape":[128],"name":"module/MobilenetV1/Conv2d_4_pointwise/BatchNorm/beta"},{"dtype":"float32","shape":[128],"name":"module/MobilenetV1/Conv2d_4_pointwise/BatchNorm/moving_mean"},{"dtype":"float32","shape":[128],"name":"module/MobilenetV1/Conv2d_4_pointwise/BatchNorm/moving_variance"},{"dtype":"float32","shape":[3,3,128,1],"name":"module/MobilenetV1/Conv2d_5_depthwise/depthwise_weights"},{"dtype":"float32","shape":[128],"name":"module/MobilenetV1/Conv2d_5_depthwise/BatchNorm/gamma"},{"dtype":"float32","shape":[128],"name":"module/MobilenetV1/Conv2d_5_depthwise/BatchNorm/beta"},{"dtype":"float32","shape":[128],"name":"module/MobilenetV1/Conv2d_5_depthwise/BatchNorm/moving_mean"},{"dtype":"float32","shape":[128],"name":"module/MobilenetV1/Conv2d_5_depthwise/BatchNorm/moving_variance"},{"dtype":"float32","shape":[1,1,128,128],"name":"module/MobilenetV1/Conv2d_5_pointwise/weights"},{"dtype":"float32","shape":[128],"name":"module/MobilenetV1/Conv2d_5_pointwise/BatchNorm/gamma"},{"dtype":"float32","shape":[128],"name":"module/MobilenetV1/Conv2d_5_pointwise/BatchNorm/beta"},{"dtype":"float32","shape":[128],"name":"module/MobilenetV1/Conv2d_5_pointwise/BatchNorm/moving_mean"},{"dtype":"float32","shape":[128],"name":"module/MobilenetV1/Conv2d_5_pointwise/BatchNorm/moving_variance"},{"dtype":"float32","shape":[3,3,128,1],"name":"module/MobilenetV1/Conv2d_6_depthwise/depthwise_weights"},{"dtype":"float32","shape":[128],"name":"module/MobilenetV1/Conv2d_6_depthwise/BatchNorm/gamma"},{"dtype":"float32","shape":[128],"name":"module/MobilenetV1/Conv2d_6_depthwise/BatchNorm/beta"},{"dtype":"float32","shape":[128],"name":"module/MobilenetV1/Conv2d_6_depthwise/BatchNorm/moving_mean"},{"dtype":"float32","shape":[128],"name":"module/MobilenetV1/Conv2d_6_depthwise/BatchNorm/moving_variance"},{"dtype":"float32","shape":[1,1,128,256],"name":"module/MobilenetV1/Conv2d_6_pointwise/weights"},{"dtype":"float32","shape":[256],"name":"module/MobilenetV1/Conv2d_6_pointwise/BatchNorm/gamma"},{"dtype":"float32","shape":[256],"name":"module/MobilenetV1/Conv2d_6_pointwise/BatchNorm/beta"},{"dtype":"float32","shape":[256],"name":"module/MobilenetV1/Conv2d_6_pointwise/BatchNorm/moving_mean"},{"dtype":"float32","shape":[256],"name":"module/MobilenetV1/Conv2d_6_pointwise/BatchNorm/moving_variance"},{"dtype":"float32","shape":[3,3,256,1],"name":"module/MobilenetV1/Conv2d_7_depthwise/depthwise_weights"},{"dtype":"float32","shape":[256],"name":"module/MobilenetV1/Conv2d_7_depthwise/BatchNorm/gamma"},{"dtype":"float32","shape":[256],"name":"module/MobilenetV1/Conv2d_7_depthwise/BatchNorm/beta"},{"dtype":"float32","shape":[256],"name":"module/MobilenetV1/Conv2d_7_depthwise/BatchNorm/moving_mean"},{"dtype":"float32","shape":[256],"name":"module/MobilenetV1/Conv2d_7_depthwise/BatchNorm/moving_variance"},{"dtype":"float32","shape":[1,1,256,256],"name":"module/MobilenetV1/Conv2d_7_pointwise/weights"},{"dtype":"float32","shape":[256],"name":"module/MobilenetV1/Conv2d_7_pointwise/BatchNorm/gamma"},{"dtype":"float32","shape":[256],"name":"module/MobilenetV1/Conv2d_7_pointwise/BatchNorm/beta"},{"dtype":"float32","shape":[256],"name":"module/MobilenetV1/Conv2d_7_pointwise/BatchNorm/moving_mean"},{"dtype":"float32","shape":[256],"name":"module/MobilenetV1/Conv2d_7_pointwise/BatchNorm/moving_variance"},{"dtype":"float32","shape":[3,3,256,1],"name":"module/MobilenetV1/Conv2d_8_depthwise/depthwise_weights"},{"dtype":"float32","shape":[256],"name":"module/MobilenetV1/Conv2d_8_depthwise/BatchNorm/gamma"},{"dtype":"float32","shape":[256],"name":"module/MobilenetV1/Conv2d_8_depthwise/BatchNorm/beta"},{"dtype":"float32","shape":[256],"name":"module/MobilenetV1/Conv2d_8_depthwise/BatchNorm/moving_mean"},{"dtype":"float32","shape":[256],"name":"module/MobilenetV1/Conv2d_8_depthwise/BatchNorm/moving_variance"},{"dtype":"float32","shape":[1,1,256,256],"name":"module/MobilenetV1/Conv2d_8_pointwise/weights"},{"dtype":"float32","shape":[256],"name":"module/MobilenetV1/Conv2d_8_pointwise/BatchNorm/gamma"},{"dtype":"float32","shape":[256],"name":"module/MobilenetV1/Conv2d_8_pointwise/BatchNorm/beta"},{"dtype":"float32","shape":[256],"name":"module/MobilenetV1/Conv2d_8_pointwise/BatchNorm/moving_mean"},{"dtype":"float32","shape":[256],"name":"module/MobilenetV1/Conv2d_8_pointwise/BatchNorm/moving_variance"},{"dtype":"float32","shape":[3,3,256,1],"name":"module/MobilenetV1/Conv2d_9_depthwise/depthwise_weights"},{"dtype":"float32","shape":[256],"name":"module/MobilenetV1/Conv2d_9_depthwise/BatchNorm/gamma"},{"dtype":"float32","shape":[256],"name":"module/MobilenetV1/Conv2d_9_depthwise/BatchNorm/beta"},{"dtype":"float32","shape":[256],"name":"module/MobilenetV1/Conv2d_9_depthwise/BatchNorm/moving_mean"},{"dtype":"float32","shape":[256],"name":"module/MobilenetV1/Conv2d_9_depthwise/BatchNorm/moving_variance"},{"dtype":"float32","shape":[1,1,256,256],"name":"module/MobilenetV1/Conv2d_9_pointwise/weights"},{"dtype":"float32","shape":[256],"name":"module/MobilenetV1/Conv2d_9_pointwise/BatchNorm/gamma"},{"dtype":"float32","shape":[256],"name":"module/MobilenetV1/Conv2d_9_pointwise/BatchNorm/beta"},{"dtype":"float32","shape":[256],"name":"module/MobilenetV1/Conv2d_9_pointwise/BatchNorm/moving_mean"},{"dtype":"float32","shape":[256],"name":"module/MobilenetV1/Conv2d_9_pointwise/BatchNorm/moving_variance"},{"dtype":"float32","shape":[3,3,256,1],"name":"module/MobilenetV1/Conv2d_10_depthwise/depthwise_weights"},{"dtype":"float32","shape":[256],"name":"module/MobilenetV1/Conv2d_10_depthwise/BatchNorm/gamma"},{"dtype":"float32","shape":[256],"name":"module/MobilenetV1/Conv2d_10_depthwise/BatchNorm/beta"},{"dtype":"float32","shape":[256],"name":"module/MobilenetV1/Conv2d_10_depthwise/BatchNorm/moving_mean"},{"dtype":"float32","shape":[256],"name":"module/MobilenetV1/Conv2d_10_depthwise/BatchNorm/moving_variance"},{"dtype":"float32","shape":[1,1,256,256],"name":"module/MobilenetV1/Conv2d_10_pointwise/weights"},{"dtype":"float32","shape":[256],"name":"module/MobilenetV1/Conv2d_10_pointwise/BatchNorm/gamma"},{"dtype":"float32","shape":[256],"name":"module/MobilenetV1/Conv2d_10_pointwise/BatchNorm/beta"},{"dtype":"float32","shape":[256],"name":"module/MobilenetV1/Conv2d_10_pointwise/BatchNorm/moving_mean"},{"dtype":"float32","shape":[256],"name":"module/MobilenetV1/Conv2d_10_pointwise/BatchNorm/moving_variance"},{"dtype":"float32","shape":[3,3,256,1],"name":"module/MobilenetV1/Conv2d_11_depthwise/depthwise_weights"},{"dtype":"float32","shape":[256],"name":"module/MobilenetV1/Conv2d_11_depthwise/BatchNorm/gamma"},{"dtype":"float32","shape":[256],"name":"module/MobilenetV1/Conv2d_11_depthwise/BatchNorm/beta"},{"dtype":"float32","shape":[256],"name":"module/MobilenetV1/Conv2d_11_depthwise/BatchNorm/moving_mean"},{"dtype":"float32","shape":[256],"name":"module/MobilenetV1/Conv2d_11_depthwise/BatchNorm/moving_variance"},{"dtype":"float32","shape":[1,1,256,256],"name":"module/MobilenetV1/Conv2d_11_pointwise/weights"},{"dtype":"float32","shape":[256],"name":"module/MobilenetV1/Conv2d_11_pointwise/BatchNorm/gamma"},{"dtype":"float32","shape":[256],"name":"module/MobilenetV1/Conv2d_11_pointwise/BatchNorm/beta"},{"dtype":"float32","shape":[256],"name":"module/MobilenetV1/Conv2d_11_pointwise/BatchNorm/moving_mean"},{"dtype":"float32","shape":[256],"name":"module/MobilenetV1/Conv2d_11_pointwise/BatchNorm/moving_variance"},{"dtype":"float32","shape":[3,3,256,1],"name":"module/MobilenetV1/Conv2d_12_depthwise/depthwise_weights"},{"dtype":"float32","shape":[256],"name":"module/MobilenetV1/Conv2d_12_depthwise/BatchNorm/gamma"},{"dtype":"float32","shape":[256],"name":"module/MobilenetV1/Conv2d_12_depthwise/BatchNorm/beta"},{"dtype":"float32","shape":[256],"name":"module/MobilenetV1/Conv2d_12_depthwise/BatchNorm/moving_mean"},{"dtype":"float32","shape":[256],"name":"module/MobilenetV1/Conv2d_12_depthwise/BatchNorm/moving_variance"},{"dtype":"float32","shape":[1,1,256,512],"name":"module/MobilenetV1/Conv2d_12_pointwise/weights"},{"dtype":"float32","shape":[512],"name":"module/MobilenetV1/Conv2d_12_pointwise/BatchNorm/gamma"},{"dtype":"float32","shape":[512],"name":"module/MobilenetV1/Conv2d_12_pointwise/BatchNorm/beta"},{"dtype":"float32","shape":[512],"name":"module/MobilenetV1/Conv2d_12_pointwise/BatchNorm/moving_mean"},{"dtype":"float32","shape":[512],"name":"module/MobilenetV1/Conv2d_12_pointwise/BatchNorm/moving_variance"},{"dtype":"float32","shape":[3,3,512,1],"name":"module/MobilenetV1/Conv2d_13_depthwise/depthwise_weights"},{"dtype":"float32","shape":[512],"name":"module/MobilenetV1/Conv2d_13_depthwise/BatchNorm/gamma"},{"dtype":"float32","shape":[512],"name":"module/MobilenetV1/Conv2d_13_depthwise/BatchNorm/beta"},{"dtype":"float32","shape":[512],"name":"module/MobilenetV1/Conv2d_13_depthwise/BatchNorm/moving_mean"},{"dtype":"float32","shape":[512],"name":"module/MobilenetV1/Conv2d_13_depthwise/BatchNorm/moving_variance"},{"dtype":"float32","shape":[1,1,512,512],"name":"module/MobilenetV1/Conv2d_13_pointwise/weights"},{"dtype":"float32","shape":[512],"name":"module/MobilenetV1/Conv2d_13_pointwise/BatchNorm/gamma"},{"dtype":"float32","shape":[512],"name":"module/MobilenetV1/Conv2d_13_pointwise/BatchNorm/beta"},{"dtype":"float32","shape":[512],"name":"module/MobilenetV1/Conv2d_13_pointwise/BatchNorm/moving_mean"},{"dtype":"float32","shape":[512],"name":"module/MobilenetV1/Conv2d_13_pointwise/BatchNorm/moving_variance"},{"dtype":"int32","shape":[2],"name":"module_apply_default/MobilenetV1/Logits/global_pool/reduction_indices"},{"dtype":"float32","shape":[512,106],"name":"final_retrain_ops/weights/final_weights"},{"dtype":"float32","shape":[106],"name":"final_retrain_ops/biases/final_biases"}]}]}